…
2023-09-20T19:12:51,437 [INFO ] W-9000-test_model_1.0-stdout MODEL_LOG - Torch TensorRT not enabled
2023-09-20T19:12:51,612 [INFO ] W-9000-test_model_1.0-stdout MODEL_LOG - Using device: cuda:0
2023-09-20T19:12:51,612 [INFO ] W-9000-test_model_1.0-stdout MODEL_LOG - MODEL FILE: model.pth
2023-09-20T19:12:51,612 [INFO ] W-9000-test_model_1.0-stdout MODEL_LOG - MODEL PATH: /tmp/models/d789c8e38d864e1d9573c7f0690e7289/model.pth
2023-09-20T19:12:51,612 [INFO ] W-9000-test_model_1.0-stdout MODEL_LOG - PRE MODEL ERRORS
2023-09-20T19:12:51,996 [INFO ] W-9000-test_model_1.0-stdout MODEL_LOG - ResNet(
2023-09-20T19:12:51,997 [INFO ] W-9000-test_model_1.0-stdout MODEL_LOG -   (conv1): Conv2d(3, 64, kernel_size=(7, 7), stride=(2, 2), padding=(3, 3), bias=False)
2023-09-20T19:12:51,998 [INFO ] W-9000-test_model_1.0-stdout MODEL_LOG -   (bn1): BatchNorm2d(64, eps=1e-05, momentum=0.1, affine=True, track_running_stats=True)
2023-09-20T19:12:51,998 [INFO ] W-9000-test_model_1.0-stdout MODEL_LOG -   (relu): ReLU(inplace=True)
2023-09-20T19:12:51,999 [INFO ] W-9000-test_model_1.0-stdout MODEL_LOG -   (maxpool): MaxPool2d(kernel_size=3, stride=2, padding=1, dilation=1, ceil_mode=False)
2023-09-20T19:12:51,999 [INFO ] W-9000-test_model_1.0-stdout MODEL_LOG -   (layer1): Sequential(
2023-09-20T19:12:51,999 [INFO ] W-9000-test_model_1.0-stdout MODEL_LOG -     (0): Bottleneck(
2023-09-20T19:12:51,999 [INFO ] W-9000-test_model_1.0-stdout MODEL_LOG -       (conv1): Conv2d(64, 64, kernel_size=(1, 1), stride=(1, 1), bias=False)
2023-09-20T19:12:51,999 [INFO ] W-9000-test_model_1.0-stdout MODEL_LOG -       (bn1): BatchNorm2d(64, eps=1e-05, momentum=0.1, affine=True, track_running_stats=True)
2023-09-20T19:12:51,999 [INFO ] W-9000-test_model_1.0-stdout MODEL_LOG -       (conv2): Conv2d(64, 64, kernel_size=(3, 3), stride=(1, 1), padding=(1, 1), bias=False)
2023-09-20T19:12:52,000 [INFO ] W-9000-test_model_1.0-stdout MODEL_LOG -       (bn2): BatchNorm2d(64, eps=1e-05, momentum=0.1, affine=True, track_running_stats=True)
2023-09-20T19:12:52,000 [INFO ] W-9000-test_model_1.0-stdout MODEL_LOG -       (conv3): Conv2d(64, 256, kernel_size=(1, 1), stride=(1, 1), bias=False)
2023-09-20T19:12:52,000 [INFO ] W-9000-test_model_1.0-stdout MODEL_LOG -       (bn3): BatchNorm2d(256, eps=1e-05, momentum=0.1, affine=True, track_running_stats=True)
2023-09-20T19:12:52,000 [INFO ] W-9000-test_model_1.0-stdout MODEL_LOG -       (relu): ReLU(inplace=True)
2023-09-20T19:12:52,000 [INFO ] W-9000-test_model_1.0-stdout MODEL_LOG -       (downsample): Sequential(
2023-09-20T19:12:52,000 [INFO ] W-9000-test_model_1.0-stdout MODEL_LOG -         (0): Conv2d(64, 256, kernel_size=(1, 1), stride=(1, 1), bias=False)
2023-09-20T19:12:52,000 [INFO ] W-9000-test_model_1.0-stdout MODEL_LOG -         (1): BatchNorm2d(256, eps=1e-05, momentum=0.1, affine=True, track_running_stats=True)
2023-09-20T19:12:52,001 [INFO ] W-9000-test_model_1.0-stdout MODEL_LOG -       )
2023-09-20T19:12:52,001 [INFO ] W-9000-test_model_1.0-stdout MODEL_LOG -     )
2023-09-20T19:12:52,001 [INFO ] W-9000-test_model_1.0-stdout MODEL_LOG -     (1): Bottleneck(
2023-09-20T19:12:52,001 [INFO ] W-9000-test_model_1.0-stdout MODEL_LOG -       (conv1): Conv2d(256, 64, kernel_size=(1, 1), stride=(1, 1), bias=False)
2023-09-20T19:12:52,002 [INFO ] W-9000-test_model_1.0-stdout MODEL_LOG -       (bn1): BatchNorm2d(64, eps=1e-05, momentum=0.1, affine=True, track_running_stats=True)
2023-09-20T19:12:52,002 [INFO ] W-9000-test_model_1.0-stdout MODEL_LOG -       (conv2): Conv2d(64, 64, kernel_size=(3, 3), stride=(1, 1), padding=(1, 1), bias=False)
2023-09-20T19:12:52,002 [INFO ] W-9000-test_model_1.0-stdout MODEL_LOG -       (bn2): BatchNorm2d(64, eps=1e-05, momentum=0.1, affine=True, track_running_stats=True)
2023-09-20T19:12:52,002 [INFO ] W-9000-test_model_1.0-stdout MODEL_LOG -       (conv3): Conv2d(64, 256, kernel_size=(1, 1), stride=(1, 1), bias=False)
2023-09-20T19:12:52,002 [INFO ] W-9000-test_model_1.0-stdout MODEL_LOG -       (bn3): BatchNorm2d(256, eps=1e-05, momentum=0.1, affine=True, track_running_stats=True)
2023-09-20T19:12:52,003 [INFO ] W-9000-test_model_1.0-stdout MODEL_LOG -       (relu): ReLU(inplace=True)
2023-09-20T19:12:52,003 [INFO ] W-9000-test_model_1.0-stdout MODEL_LOG -     )
2023-09-20T19:12:52,003 [INFO ] W-9000-test_model_1.0-stdout MODEL_LOG -     (2): Bottleneck(
2023-09-20T19:12:52,003 [INFO ] W-9000-test_model_1.0-stdout MODEL_LOG -       (conv1): Conv2d(256, 64, kernel_size=(1, 1), stride=(1, 1), bias=False)
2023-09-20T19:12:52,003 [INFO ] W-9000-test_model_1.0-stdout MODEL_LOG -       (bn1): BatchNorm2d(64, eps=1e-05, momentum=0.1, affine=True, track_running_stats=True)
2023-09-20T19:12:52,003 [INFO ] W-9000-test_model_1.0-stdout MODEL_LOG -       (conv2): Conv2d(64, 64, kernel_size=(3, 3), stride=(1, 1), padding=(1, 1), bias=False)
2023-09-20T19:12:52,004 [INFO ] W-9000-test_model_1.0-stdout MODEL_LOG -       (bn2): BatchNorm2d(64, eps=1e-05, momentum=0.1, affine=True, track_running_stats=True)
2023-09-20T19:12:52,004 [INFO ] W-9000-test_model_1.0-stdout MODEL_LOG -       (conv3): Conv2d(64, 256, kernel_size=(1, 1), stride=(1, 1), bias=False)
2023-09-20T19:12:52,004 [INFO ] W-9000-test_model_1.0-stdout MODEL_LOG -       (bn3): BatchNorm2d(256, eps=1e-05, momentum=0.1, affine=True, track_running_stats=True)
2023-09-20T19:12:52,004 [INFO ] W-9000-test_model_1.0-stdout MODEL_LOG -       (relu): ReLU(inplace=True)
2023-09-20T19:12:52,004 [INFO ] W-9000-test_model_1.0-stdout MODEL_LOG -     )
2023-09-20T19:12:52,004 [INFO ] W-9000-test_model_1.0-stdout MODEL_LOG -   )
2023-09-20T19:12:52,005 [INFO ] W-9000-test_model_1.0-stdout MODEL_LOG -   (layer2): Sequential(
2023-09-20T19:12:52,005 [INFO ] W-9000-test_model_1.0-stdout MODEL_LOG -     (0): Bottleneck(
2023-09-20T19:12:52,005 [INFO ] W-9000-test_model_1.0-stdout MODEL_LOG -       (conv1): Conv2d(256, 128, kernel_size=(1, 1), stride=(1, 1), bias=False)
2023-09-20T19:12:52,005 [DEBUG] W-9000-test_model_1.0 org.pytorch.serve.wlm.WorkerThread - sent a reply, jobdone: true
2023-09-20T19:12:52,005 [DEBUG] W-9000-test_model_1.0 org.pytorch.serve.wlm.WorkerThread - sent a reply, jobdone: true
2023-09-20T19:12:52,005 [INFO ] W-9000-test_model_1.0-stdout MODEL_LOG -       (bn1): BatchNorm2d(128, eps=1e-05, momentum=0.1, affine=True, track_running_stats=True)
2023-09-20T19:12:52,005 [INFO ] W-9000-test_model_1.0 org.pytorch.serve.wlm.WorkerThread - Backend response time: 626
2023-09-20T19:12:52,005 [INFO ] W-9000-test_model_1.0 org.pytorch.serve.wlm.WorkerThread - Backend response time: 626
2023-09-20T19:12:52,006 [INFO ] W-9000-test_model_1.0-stdout MODEL_LOG -       (conv2): Conv2d(128, 128, kernel_size=(3, 3), stride=(2, 2), padding=(1, 1), bias=False)
2023-09-20T19:12:52,006 [INFO ] W-9000-test_model_1.0-stdout MODEL_LOG -       (bn2): BatchNorm2d(128, eps=1e-05, momentum=0.1, affine=True, track_running_stats=True)
2023-09-20T19:12:52,006 [DEBUG] W-9000-test_model_1.0 org.pytorch.serve.wlm.WorkerThread - W-9000-test_model_1.0 State change WORKER_STARTED -> WORKER_MODEL_LOADED
2023-09-20T19:12:52,006 [INFO ] W-9000-test_model_1.0-stdout MODEL_LOG -       (conv3): Conv2d(128, 512, kernel_size=(1, 1), stride=(1, 1), bias=False)
2023-09-20T19:12:52,006 [DEBUG] W-9000-test_model_1.0 org.pytorch.serve.wlm.WorkerThread - W-9000-test_model_1.0 State change WORKER_STARTED -> WORKER_MODEL_LOADED
2023-09-20T19:12:52,006 [INFO ] W-9000-test_model_1.0-stdout MODEL_LOG -       (bn3): BatchNorm2d(512, eps=1e-05, momentum=0.1, affine=True, track_running_stats=True)
2023-09-20T19:12:52,006 [INFO ] W-9000-test_model_1.0-stdout MODEL_LOG -       (relu): ReLU(inplace=True)
2023-09-20T19:12:52,006 [INFO ] W-9000-test_model_1.0-stdout MODEL_LOG -       (downsample): Sequential(
2023-09-20T19:12:52,006 [INFO ] W-9000-test_model_1.0-stdout MODEL_LOG -         (0): Conv2d(256, 512, kernel_size=(1, 1), stride=(2, 2), bias=False)
2023-09-20T19:12:52,007 [INFO ] W-9000-test_model_1.0-stdout MODEL_LOG -         (1): BatchNorm2d(512, eps=1e-05, momentum=0.1, affine=True, track_running_stats=True)
2023-09-20T19:12:52,007 [INFO ] W-9000-test_model_1.0-stdout MODEL_LOG -       )
2023-09-20T19:12:52,007 [INFO ] W-9000-test_model_1.0-stdout MODEL_LOG -     )
2023-09-20T19:12:52,007 [INFO ] W-9000-test_model_1.0-stdout MODEL_LOG -     (1): Bottleneck(
2023-09-20T19:12:52,007 [INFO ] W-9000-test_model_1.0-stdout MODEL_LOG -       (conv1): Conv2d(512, 128, kernel_size=(1, 1), stride=(1, 1), bias=False)
2023-09-20T19:12:52,007 [INFO ] W-9000-test_model_1.0-stdout MODEL_LOG -       (bn1): BatchNorm2d(128, eps=1e-05, momentum=0.1, affine=True, track_running_stats=True)
2023-09-20T19:12:52,007 [INFO ] W-9000-test_model_1.0-stdout MODEL_LOG -       (conv2): Conv2d(128, 128, kernel_size=(3, 3), stride=(1, 1), padding=(1, 1), bias=False)
2023-09-20T19:12:52,008 [INFO ] W-9000-test_model_1.0-stdout MODEL_LOG -       (bn2): BatchNorm2d(128, eps=1e-05, momentum=0.1, affine=True, track_running_stats=True)
2023-09-20T19:12:52,008 [INFO ] W-9000-test_model_1.0-stdout MODEL_LOG -       (conv3): Conv2d(128, 512, kernel_size=(1, 1), stride=(1, 1), bias=False)
2023-09-20T19:12:52,008 [INFO ] W-9000-test_model_1.0-stdout MODEL_LOG -       (bn3): BatchNorm2d(512, eps=1e-05, momentum=0.1, affine=True, track_running_stats=True)
2023-09-20T19:12:52,008 [INFO ] W-9000-test_model_1.0-stdout MODEL_LOG -       (relu): ReLU(inplace=True)
2023-09-20T19:12:52,008 [INFO ] W-9000-test_model_1.0-stdout MODEL_LOG -     )
2023-09-20T19:12:52,008 [INFO ] W-9000-test_model_1.0-stdout MODEL_LOG -     (2): Bottleneck(
2023-09-20T19:12:52,009 [INFO ] W-9000-test_model_1.0-stdout MODEL_LOG -       (conv1): Conv2d(512, 128, kernel_size=(1, 1), stride=(1, 1), bias=False)
2023-09-20T19:12:52,009 [INFO ] W-9000-test_model_1.0-stdout MODEL_LOG -       (bn1): BatchNorm2d(128, eps=1e-05, momentum=0.1, affine=True, track_running_stats=True)
2023-09-20T19:12:52,008 [INFO ] W-9000-test_model_1.0 TS_METRICS - WorkerLoadTime.Milliseconds:1479.0|#WorkerName:W-9000-test_model_1.0,Level:Host|#hostname:ps2sxr1b9,timestamp:1695237172
2023-09-20T19:12:52,009 [INFO ] W-9000-test_model_1.0-stdout MODEL_LOG -       (conv2): Conv2d(128, 128, kernel_size=(3, 3), stride=(1, 1), padding=(1, 1), bias=False)
2023-09-20T19:12:52,009 [INFO ] W-9000-test_model_1.0 TS_METRICS - WorkerThreadTime.Milliseconds:46.0|#Level:Host|#hostname:ps2sxr1b9,timestamp:1695237172
2023-09-20T19:12:52,009 [INFO ] W-9000-test_model_1.0-stdout MODEL_LOG -       (bn2): BatchNorm2d(128, eps=1e-05, momentum=0.1, affine=True, track_running_stats=True)
2023-09-20T19:12:52,009 [INFO ] W-9000-test_model_1.0-stdout MODEL_LOG -       (conv3): Conv2d(128, 512, kernel_size=(1, 1), stride=(1, 1), bias=False)
2023-09-20T19:12:52,009 [INFO ] W-9000-test_model_1.0-stdout MODEL_LOG -       (bn3): BatchNorm2d(512, eps=1e-05, momentum=0.1, affine=True, track_running_stats=True)
2023-09-20T19:12:52,010 [INFO ] W-9000-test_model_1.0-stdout MODEL_LOG -       (relu): ReLU(inplace=True)
2023-09-20T19:12:52,010 [INFO ] W-9000-test_model_1.0-stdout MODEL_LOG -     )
2023-09-20T19:12:52,010 [INFO ] W-9000-test_model_1.0-stdout MODEL_LOG -     (3): Bottleneck(
2023-09-20T19:12:52,010 [INFO ] W-9000-test_model_1.0-stdout MODEL_LOG -       (conv1): Conv2d(512, 128, kernel_size=(1, 1), stride=(1, 1), bias=False)
2023-09-20T19:12:52,010 [INFO ] W-9000-test_model_1.0-stdout MODEL_LOG -       (bn1): BatchNorm2d(128, eps=1e-05, momentum=0.1, affine=True, track_running_stats=True)
2023-09-20T19:12:52,010 [INFO ] W-9000-test_model_1.0-stdout MODEL_LOG -       (conv2): Conv2d(128, 128, kernel_size=(3, 3), stride=(1, 1), padding=(1, 1), bias=False)
2023-09-20T19:12:52,011 [INFO ] W-9000-test_model_1.0-stdout MODEL_LOG -       (bn2): BatchNorm2d(128, eps=1e-05, momentum=0.1, affine=True, track_running_stats=True)
2023-09-20T19:12:52,011 [INFO ] W-9000-test_model_1.0-stdout MODEL_LOG -       (conv3): Conv2d(128, 512, kernel_size=(1, 1), stride=(1, 1), bias=False)
2023-09-20T19:12:52,011 [INFO ] W-9000-test_model_1.0-stdout MODEL_LOG -       (bn3): BatchNorm2d(512, eps=1e-05, momentum=0.1, affine=True, track_running_stats=True)
2023-09-20T19:12:52,011 [INFO ] W-9000-test_model_1.0-stdout MODEL_LOG -       (relu): ReLU(inplace=True)
2023-09-20T19:12:52,011 [INFO ] W-9000-test_model_1.0-stdout MODEL_LOG -     )
2023-09-20T19:12:52,011 [INFO ] W-9000-test_model_1.0-stdout MODEL_LOG -   )
2023-09-20T19:12:52,012 [INFO ] W-9000-test_model_1.0-stdout MODEL_LOG -   (layer3): Sequential(
2023-09-20T19:12:52,012 [INFO ] W-9000-test_model_1.0-stdout MODEL_LOG -     (0): Bottleneck(
2023-09-20T19:12:52,012 [INFO ] W-9000-test_model_1.0-stdout MODEL_LOG -       (conv1): Conv2d(512, 256, kernel_size=(1, 1), stride=(1, 1), bias=False)
2023-09-20T19:12:52,013 [INFO ] W-9000-test_model_1.0-stdout MODEL_LOG -       (bn1): BatchNorm2d(256, eps=1e-05, momentum=0.1, affine=True, track_running_stats=True)
2023-09-20T19:12:52,013 [INFO ] W-9000-test_model_1.0-stdout MODEL_LOG -       (conv2): Conv2d(256, 256, kernel_size=(3, 3), stride=(2, 2), padding=(1, 1), bias=False)
2023-09-20T19:12:52,013 [INFO ] W-9000-test_model_1.0-stdout MODEL_LOG -       (bn2): BatchNorm2d(256, eps=1e-05, momentum=0.1, affine=True, track_running_stats=True)
2023-09-20T19:12:52,013 [INFO ] W-9000-test_model_1.0-stdout MODEL_LOG -       (conv3): Conv2d(256, 1024, kernel_size=(1, 1), stride=(1, 1), bias=False)
2023-09-20T19:12:52,013 [INFO ] W-9000-test_model_1.0-stdout MODEL_LOG -       (bn3): BatchNorm2d(1024, eps=1e-05, momentum=0.1, affine=True, track_running_stats=True)
2023-09-20T19:12:52,014 [INFO ] W-9000-test_model_1.0-stdout MODEL_LOG -       (relu): ReLU(inplace=True)
2023-09-20T19:12:52,014 [INFO ] W-9000-test_model_1.0-stdout MODEL_LOG -       (downsample): Sequential(
2023-09-20T19:12:52,014 [INFO ] W-9000-test_model_1.0-stdout MODEL_LOG -         (0): Conv2d(512, 1024, kernel_size=(1, 1), stride=(2, 2), bias=False)
2023-09-20T19:12:52,014 [INFO ] W-9000-test_model_1.0-stdout MODEL_LOG -         (1): BatchNorm2d(1024, eps=1e-05, momentum=0.1, affine=True, track_running_stats=True)
2023-09-20T19:12:52,014 [INFO ] W-9000-test_model_1.0-stdout MODEL_LOG -       )
2023-09-20T19:12:52,014 [INFO ] W-9000-test_model_1.0-stdout MODEL_LOG -     )
2023-09-20T19:12:52,015 [INFO ] W-9000-test_model_1.0-stdout MODEL_LOG -     (1): Bottleneck(
2023-09-20T19:12:52,015 [INFO ] W-9000-test_model_1.0-stdout MODEL_LOG -       (conv1): Conv2d(1024, 256, kernel_size=(1, 1), stride=(1, 1), bias=False)
2023-09-20T19:12:52,015 [INFO ] W-9000-test_model_1.0-stdout MODEL_LOG -       (bn1): BatchNorm2d(256, eps=1e-05, momentum=0.1, affine=True, track_running_stats=True)
2023-09-20T19:12:52,015 [INFO ] W-9000-test_model_1.0-stdout MODEL_LOG -       (conv2): Conv2d(256, 256, kernel_size=(3, 3), stride=(1, 1), padding=(1, 1), bias=False)
2023-09-20T19:12:52,015 [INFO ] W-9000-test_model_1.0-stdout MODEL_LOG -       (bn2): BatchNorm2d(256, eps=1e-05, momentum=0.1, affine=True, track_running_stats=True)
2023-09-20T19:12:52,015 [INFO ] W-9000-test_model_1.0-stdout MODEL_LOG -       (conv3): Conv2d(256, 1024, kernel_size=(1, 1), stride=(1, 1), bias=False)
2023-09-20T19:12:52,015 [INFO ] W-9000-test_model_1.0-stdout MODEL_LOG -       (bn3): BatchNorm2d(1024, eps=1e-05, momentum=0.1, affine=True, track_running_stats=True)
2023-09-20T19:12:52,016 [INFO ] W-9000-test_model_1.0-stdout MODEL_LOG -       (relu): ReLU(inplace=True)
2023-09-20T19:12:52,016 [INFO ] W-9000-test_model_1.0-stdout MODEL_LOG -     )
2023-09-20T19:12:52,016 [INFO ] W-9000-test_model_1.0-stdout MODEL_LOG -     (2): Bottleneck(
2023-09-20T19:12:52,016 [INFO ] W-9000-test_model_1.0-stdout MODEL_LOG -       (conv1): Conv2d(1024, 256, kernel_size=(1, 1), stride=(1, 1), bias=False)
2023-09-20T19:12:52,016 [INFO ] W-9000-test_model_1.0-stdout MODEL_LOG -       (bn1): BatchNorm2d(256, eps=1e-05, momentum=0.1, affine=True, track_running_stats=True)
2023-09-20T19:12:52,016 [INFO ] W-9000-test_model_1.0-stdout MODEL_LOG -       (conv2): Conv2d(256, 256, kernel_size=(3, 3), stride=(1, 1), padding=(1, 1), bias=False)
2023-09-20T19:12:52,016 [INFO ] W-9000-test_model_1.0-stdout MODEL_LOG -       (bn2): BatchNorm2d(256, eps=1e-05, momentum=0.1, affine=True, track_running_stats=True)
2023-09-20T19:12:52,017 [INFO ] W-9000-test_model_1.0-stdout MODEL_LOG -       (conv3): Conv2d(256, 1024, kernel_size=(1, 1), stride=(1, 1), bias=False)
2023-09-20T19:12:52,017 [INFO ] W-9000-test_model_1.0-stdout MODEL_LOG -       (bn3): BatchNorm2d(1024, eps=1e-05, momentum=0.1, affine=True, track_running_stats=True)
2023-09-20T19:12:52,017 [INFO ] W-9000-test_model_1.0-stdout MODEL_LOG -       (relu): ReLU(inplace=True)
2023-09-20T19:12:52,017 [INFO ] W-9000-test_model_1.0-stdout MODEL_LOG -     )
2023-09-20T19:12:52,017 [INFO ] W-9000-test_model_1.0-stdout MODEL_LOG -     (3): Bottleneck(
2023-09-20T19:12:52,017 [INFO ] W-9000-test_model_1.0-stdout MODEL_LOG -       (conv1): Conv2d(1024, 256, kernel_size=(1, 1), stride=(1, 1), bias=False)
2023-09-20T19:12:52,017 [INFO ] W-9000-test_model_1.0-stdout MODEL_LOG -       (bn1): BatchNorm2d(256, eps=1e-05, momentum=0.1, affine=True, track_running_stats=True)
2023-09-20T19:12:52,017 [INFO ] W-9000-test_model_1.0-stdout MODEL_LOG -       (conv2): Conv2d(256, 256, kernel_size=(3, 3), stride=(1, 1), padding=(1, 1), bias=False)
2023-09-20T19:12:52,018 [INFO ] W-9000-test_model_1.0-stdout MODEL_LOG -       (bn2): BatchNorm2d(256, eps=1e-05, momentum=0.1, affine=True, track_running_stats=True)
2023-09-20T19:12:52,018 [INFO ] W-9000-test_model_1.0-stdout MODEL_LOG -       (conv3): Conv2d(256, 1024, kernel_size=(1, 1), stride=(1, 1), bias=False)
2023-09-20T19:12:52,018 [INFO ] W-9000-test_model_1.0-stdout MODEL_LOG -       (bn3): BatchNorm2d(1024, eps=1e-05, momentum=0.1, affine=True, track_running_stats=True)
2023-09-20T19:12:52,018 [INFO ] W-9000-test_model_1.0-stdout MODEL_LOG -       (relu): ReLU(inplace=True)
2023-09-20T19:12:52,018 [INFO ] W-9000-test_model_1.0-stdout MODEL_LOG -     )
2023-09-20T19:12:52,018 [INFO ] W-9000-test_model_1.0-stdout MODEL_LOG -     (4): Bottleneck(
2023-09-20T19:12:52,019 [INFO ] W-9000-test_model_1.0-stdout MODEL_LOG -       (conv1): Conv2d(1024, 256, kernel_size=(1, 1), stride=(1, 1), bias=False)
2023-09-20T19:12:52,019 [INFO ] W-9000-test_model_1.0-stdout MODEL_LOG -       (bn1): BatchNorm2d(256, eps=1e-05, momentum=0.1, affine=True, track_running_stats=True)
2023-09-20T19:12:52,019 [INFO ] W-9000-test_model_1.0-stdout MODEL_LOG -       (conv2): Conv2d(256, 256, kernel_size=(3, 3), stride=(1, 1), padding=(1, 1), bias=False)
2023-09-20T19:12:52,019 [INFO ] W-9000-test_model_1.0-stdout MODEL_LOG -       (bn2): BatchNorm2d(256, eps=1e-05, momentum=0.1, affine=True, track_running_stats=True)
2023-09-20T19:12:52,019 [INFO ] W-9000-test_model_1.0-stdout MODEL_LOG -       (conv3): Conv2d(256, 1024, kernel_size=(1, 1), stride=(1, 1), bias=False)
2023-09-20T19:12:52,019 [INFO ] W-9000-test_model_1.0-stdout MODEL_LOG -       (bn3): BatchNorm2d(1024, eps=1e-05, momentum=0.1, affine=True, track_running_stats=True)
2023-09-20T19:12:52,019 [INFO ] W-9000-test_model_1.0-stdout MODEL_LOG -       (relu): ReLU(inplace=True)
2023-09-20T19:12:52,020 [INFO ] W-9000-test_model_1.0-stdout MODEL_LOG -     )
2023-09-20T19:12:52,020 [INFO ] W-9000-test_model_1.0-stdout MODEL_LOG -     (5): Bottleneck(
2023-09-20T19:12:52,020 [INFO ] W-9000-test_model_1.0-stdout MODEL_LOG -       (conv1): Conv2d(1024, 256, kernel_size=(1, 1), stride=(1, 1), bias=False)
2023-09-20T19:12:52,020 [INFO ] W-9000-test_model_1.0-stdout MODEL_LOG -       (bn1): BatchNorm2d(256, eps=1e-05, momentum=0.1, affine=True, track_running_stats=True)
2023-09-20T19:12:52,020 [INFO ] W-9000-test_model_1.0-stdout MODEL_LOG -       (conv2): Conv2d(256, 256, kernel_size=(3, 3), stride=(1, 1), padding=(1, 1), bias=False)
2023-09-20T19:12:52,020 [INFO ] W-9000-test_model_1.0-stdout MODEL_LOG -       (bn2): BatchNorm2d(256, eps=1e-05, momentum=0.1, affine=True, track_running_stats=True)
2023-09-20T19:12:52,021 [INFO ] W-9000-test_model_1.0-stdout MODEL_LOG -       (conv3): Conv2d(256, 1024, kernel_size=(1, 1), stride=(1, 1), bias=False)
2023-09-20T19:12:52,021 [INFO ] W-9000-test_model_1.0-stdout MODEL_LOG -       (bn3): BatchNorm2d(1024, eps=1e-05, momentum=0.1, affine=True, track_running_stats=True)
2023-09-20T19:12:52,021 [INFO ] W-9000-test_model_1.0-stdout MODEL_LOG -       (relu): ReLU(inplace=True)
2023-09-20T19:12:52,021 [INFO ] W-9000-test_model_1.0-stdout MODEL_LOG -     )
2023-09-20T19:12:52,021 [INFO ] W-9000-test_model_1.0-stdout MODEL_LOG -   )
2023-09-20T19:12:52,021 [INFO ] W-9000-test_model_1.0-stdout MODEL_LOG -   (layer4): Sequential(
2023-09-20T19:12:52,021 [INFO ] W-9000-test_model_1.0-stdout MODEL_LOG -     (0): Bottleneck(
2023-09-20T19:12:52,021 [INFO ] W-9000-test_model_1.0-stdout MODEL_LOG -       (conv1): Conv2d(1024, 512, kernel_size=(1, 1), stride=(1, 1), bias=False)
2023-09-20T19:12:52,022 [INFO ] W-9000-test_model_1.0-stdout MODEL_LOG -       (bn1): BatchNorm2d(512, eps=1e-05, momentum=0.1, affine=True, track_running_stats=True)
2023-09-20T19:12:52,022 [INFO ] W-9000-test_model_1.0-stdout MODEL_LOG -       (conv2): Conv2d(512, 512, kernel_size=(3, 3), stride=(2, 2), padding=(1, 1), bias=False)
2023-09-20T19:12:52,022 [INFO ] W-9000-test_model_1.0-stdout MODEL_LOG -       (bn2): BatchNorm2d(512, eps=1e-05, momentum=0.1, affine=True, track_running_stats=True)
2023-09-20T19:12:52,022 [INFO ] W-9000-test_model_1.0-stdout MODEL_LOG -       (conv3): Conv2d(512, 2048, kernel_size=(1, 1), stride=(1, 1), bias=False)
2023-09-20T19:12:52,022 [INFO ] W-9000-test_model_1.0-stdout MODEL_LOG -       (bn3): BatchNorm2d(2048, eps=1e-05, momentum=0.1, affine=True, track_running_stats=True)
2023-09-20T19:12:52,022 [INFO ] W-9000-test_model_1.0-stdout MODEL_LOG -       (relu): ReLU(inplace=True)
2023-09-20T19:12:52,022 [INFO ] W-9000-test_model_1.0-stdout MODEL_LOG -       (downsample): Sequential(
2023-09-20T19:12:52,022 [INFO ] W-9000-test_model_1.0-stdout MODEL_LOG -         (0): Conv2d(1024, 2048, kernel_size=(1, 1), stride=(2, 2), bias=False)
2023-09-20T19:12:52,023 [INFO ] W-9000-test_model_1.0-stdout MODEL_LOG -         (1): BatchNorm2d(2048, eps=1e-05, momentum=0.1, affine=True, track_running_stats=True)
2023-09-20T19:12:52,023 [INFO ] W-9000-test_model_1.0-stdout MODEL_LOG -       )
2023-09-20T19:12:52,023 [INFO ] W-9000-test_model_1.0-stdout MODEL_LOG -     )
2023-09-20T19:12:52,023 [INFO ] W-9000-test_model_1.0-stdout MODEL_LOG -     (1): Bottleneck(
2023-09-20T19:12:52,023 [INFO ] W-9000-test_model_1.0-stdout MODEL_LOG -       (conv1): Conv2d(2048, 512, kernel_size=(1, 1), stride=(1, 1), bias=False)
2023-09-20T19:12:52,023 [INFO ] W-9000-test_model_1.0-stdout MODEL_LOG -       (bn1): BatchNorm2d(512, eps=1e-05, momentum=0.1, affine=True, track_running_stats=True)
2023-09-20T19:12:52,023 [INFO ] W-9000-test_model_1.0-stdout MODEL_LOG -       (conv2): Conv2d(512, 512, kernel_size=(3, 3), stride=(1, 1), padding=(1, 1), bias=False)
2023-09-20T19:12:52,023 [INFO ] W-9000-test_model_1.0-stdout MODEL_LOG -       (bn2): BatchNorm2d(512, eps=1e-05, momentum=0.1, affine=True, track_running_stats=True)
2023-09-20T19:12:52,023 [INFO ] W-9000-test_model_1.0-stdout MODEL_LOG -       (conv3): Conv2d(512, 2048, kernel_size=(1, 1), stride=(1, 1), bias=False)
2023-09-20T19:12:52,024 [INFO ] W-9000-test_model_1.0-stdout MODEL_LOG -       (bn3): BatchNorm2d(2048, eps=1e-05, momentum=0.1, affine=True, track_running_stats=True)
2023-09-20T19:12:52,024 [INFO ] W-9000-test_model_1.0-stdout MODEL_LOG -       (relu): ReLU(inplace=True)
2023-09-20T19:12:52,024 [INFO ] W-9000-test_model_1.0-stdout MODEL_LOG -     )
2023-09-20T19:12:52,024 [INFO ] W-9000-test_model_1.0-stdout MODEL_LOG -     (2): Bottleneck(
2023-09-20T19:12:52,024 [INFO ] W-9000-test_model_1.0-stdout MODEL_LOG -       (conv1): Conv2d(2048, 512, kernel_size=(1, 1), stride=(1, 1), bias=False)
2023-09-20T19:12:52,024 [INFO ] W-9000-test_model_1.0-stdout MODEL_LOG -       (bn1): BatchNorm2d(512, eps=1e-05, momentum=0.1, affine=True, track_running_stats=True)
2023-09-20T19:12:52,024 [INFO ] W-9000-test_model_1.0-stdout MODEL_LOG -       (conv2): Conv2d(512, 512, kernel_size=(3, 3), stride=(1, 1), padding=(1, 1), bias=False)
2023-09-20T19:12:52,024 [INFO ] W-9000-test_model_1.0-stdout MODEL_LOG -       (bn2): BatchNorm2d(512, eps=1e-05, momentum=0.1, affine=True, track_running_stats=True)
2023-09-20T19:12:52,025 [INFO ] W-9000-test_model_1.0-stdout MODEL_LOG -       (conv3): Conv2d(512, 2048, kernel_size=(1, 1), stride=(1, 1), bias=False)
2023-09-20T19:12:52,025 [INFO ] W-9000-test_model_1.0-stdout MODEL_LOG -       (bn3): BatchNorm2d(2048, eps=1e-05, momentum=0.1, affine=True, track_running_stats=True)
2023-09-20T19:12:52,025 [INFO ] W-9000-test_model_1.0-stdout MODEL_LOG -       (relu): ReLU(inplace=True)
2023-09-20T19:12:52,025 [INFO ] W-9000-test_model_1.0-stdout MODEL_LOG -     )
2023-09-20T19:12:52,025 [INFO ] W-9000-test_model_1.0-stdout MODEL_LOG -   )
2023-09-20T19:12:52,025 [INFO ] W-9000-test_model_1.0-stdout MODEL_LOG -   (avgpool): AdaptiveAvgPool2d(output_size=(1, 1))
2023-09-20T19:12:52,025 [INFO ] W-9000-test_model_1.0-stdout MODEL_LOG -   (fc): Linear(in_features=2048, out_features=1000, bias=True)
2023-09-20T19:12:52,025 [INFO ] W-9000-test_model_1.0-stdout MODEL_LOG - )
2023-09-20T19:12:52,025 [INFO ] W-9000-test_model_1.0-stdout MODEL_LOG - MODEL LOADED
2023-09-20T19:20:11,417 [WARN ] main org.pytorch.serve.util.ConfigManager - Your torchserve instance can access any URL to load models. When deploying to production, make sure to limit the set of allowed_urls in config.properties
…
2023-09-20T19:20:13,913 [INFO ] W-9000-test_model_1.0-stdout MODEL_LOG - Torch TensorRT not enabled
2023-09-20T19:20:14,078 [INFO ] W-9000-test_model_1.0-stdout MODEL_LOG - Using device: cuda:0
2023-09-20T19:20:14,079 [INFO ] W-9000-test_model_1.0-stdout MODEL_LOG - MODEL FILE: model.pth
2023-09-20T19:20:14,079 [INFO ] W-9000-test_model_1.0-stdout MODEL_LOG - MODEL PATH: /tmp/models/3e386da50f1d4b6b86cc84d365428cab/model.pth
2023-09-20T19:20:14,079 [INFO ] W-9000-test_model_1.0-stdout MODEL_LOG - PRE MODEL ERRORS
2023-09-20T19:20:14,453 [INFO ] W-9000-test_model_1.0-stdout MODEL_LOG - ResNet(
2023-09-20T19:20:14,453 [INFO ] W-9000-test_model_1.0-stdout MODEL_LOG -   (conv1): Conv2d(3, 64, kernel_size=(7, 7), stride=(2, 2), padding=(3, 3), bias=False)
2023-09-20T19:20:14,454 [INFO ] W-9000-test_model_1.0-stdout MODEL_LOG -   (bn1): BatchNorm2d(64, eps=1e-05, momentum=0.1, affine=True, track_running_stats=True)
2023-09-20T19:20:14,454 [INFO ] W-9000-test_model_1.0-stdout MODEL_LOG -   (relu): ReLU(inplace=True)
2023-09-20T19:20:14,454 [INFO ] W-9000-test_model_1.0-stdout MODEL_LOG -   (maxpool): MaxPool2d(kernel_size=3, stride=2, padding=1, dilation=1, ceil_mode=False)
2023-09-20T19:20:14,454 [INFO ] W-9000-test_model_1.0-stdout MODEL_LOG -   (layer1): Sequential(
2023-09-20T19:20:14,454 [INFO ] W-9000-test_model_1.0-stdout MODEL_LOG -     (0): Bottleneck(
2023-09-20T19:20:14,455 [INFO ] W-9000-test_model_1.0-stdout MODEL_LOG -       (conv1): Conv2d(64, 64, kernel_size=(1, 1), stride=(1, 1), bias=False)
2023-09-20T19:20:14,455 [INFO ] W-9000-test_model_1.0-stdout MODEL_LOG -       (bn1): BatchNorm2d(64, eps=1e-05, momentum=0.1, affine=True, track_running_stats=True)
2023-09-20T19:20:14,455 [INFO ] W-9000-test_model_1.0-stdout MODEL_LOG -       (conv2): Conv2d(64, 64, kernel_size=(3, 3), stride=(1, 1), padding=(1, 1), bias=False)
2023-09-20T19:20:14,456 [INFO ] W-9000-test_model_1.0-stdout MODEL_LOG -       (bn2): BatchNorm2d(64, eps=1e-05, momentum=0.1, affine=True, track_running_stats=True)
2023-09-20T19:20:14,456 [INFO ] W-9000-test_model_1.0-stdout MODEL_LOG -       (conv3): Conv2d(64, 256, kernel_size=(1, 1), stride=(1, 1), bias=False)
2023-09-20T19:20:14,456 [INFO ] W-9000-test_model_1.0-stdout MODEL_LOG -       (bn3): BatchNorm2d(256, eps=1e-05, momentum=0.1, affine=True, track_running_stats=True)
2023-09-20T19:20:14,456 [INFO ] W-9000-test_model_1.0-stdout MODEL_LOG -       (relu): ReLU(inplace=True)
2023-09-20T19:20:14,457 [INFO ] W-9000-test_model_1.0-stdout MODEL_LOG -       (downsample): Sequential(
2023-09-20T19:20:14,457 [INFO ] W-9000-test_model_1.0-stdout MODEL_LOG -         (0): Conv2d(64, 256, kernel_size=(1, 1), stride=(1, 1), bias=False)
2023-09-20T19:20:14,457 [INFO ] W-9000-test_model_1.0-stdout MODEL_LOG -         (1): BatchNorm2d(256, eps=1e-05, momentum=0.1, affine=True, track_running_stats=True)
2023-09-20T19:20:14,458 [INFO ] W-9000-test_model_1.0-stdout MODEL_LOG -       )
2023-09-20T19:20:14,458 [INFO ] W-9000-test_model_1.0-stdout MODEL_LOG -     )
2023-09-20T19:20:14,458 [INFO ] W-9000-test_model_1.0-stdout MODEL_LOG -     (1): Bottleneck(
2023-09-20T19:20:14,458 [INFO ] W-9000-test_model_1.0-stdout MODEL_LOG -       (conv1): Conv2d(256, 64, kernel_size=(1, 1), stride=(1, 1), bias=False)
2023-09-20T19:20:14,459 [INFO ] W-9000-test_model_1.0-stdout MODEL_LOG -       (bn1): BatchNorm2d(64, eps=1e-05, momentum=0.1, affine=True, track_running_stats=True)
2023-09-20T19:20:14,460 [INFO ] W-9000-test_model_1.0-stdout MODEL_LOG -       (conv2): Conv2d(64, 64, kernel_size=(3, 3), stride=(1, 1), padding=(1, 1), bias=False)
2023-09-20T19:20:14,460 [INFO ] W-9000-test_model_1.0-stdout MODEL_LOG -       (bn2): BatchNorm2d(64, eps=1e-05, momentum=0.1, affine=True, track_running_stats=True)
2023-09-20T19:20:14,460 [INFO ] W-9000-test_model_1.0-stdout MODEL_LOG -       (conv3): Conv2d(64, 256, kernel_size=(1, 1), stride=(1, 1), bias=False)
2023-09-20T19:20:14,460 [INFO ] W-9000-test_model_1.0-stdout MODEL_LOG -       (bn3): BatchNorm2d(256, eps=1e-05, momentum=0.1, affine=True, track_running_stats=True)
2023-09-20T19:20:14,461 [INFO ] W-9000-test_model_1.0-stdout MODEL_LOG -       (relu): ReLU(inplace=True)
2023-09-20T19:20:14,461 [INFO ] W-9000-test_model_1.0-stdout MODEL_LOG -     )
2023-09-20T19:20:14,461 [INFO ] W-9000-test_model_1.0-stdout MODEL_LOG -     (2): Bottleneck(
2023-09-20T19:20:14,461 [INFO ] W-9000-test_model_1.0-stdout MODEL_LOG -       (conv1): Conv2d(256, 64, kernel_size=(1, 1), stride=(1, 1), bias=False)
2023-09-20T19:20:14,461 [INFO ] W-9000-test_model_1.0-stdout MODEL_LOG -       (bn1): BatchNorm2d(64, eps=1e-05, momentum=0.1, affine=True, track_running_stats=True)
2023-09-20T19:20:14,462 [INFO ] W-9000-test_model_1.0-stdout MODEL_LOG -       (conv2): Conv2d(64, 64, kernel_size=(3, 3), stride=(1, 1), padding=(1, 1), bias=False)
2023-09-20T19:20:14,462 [INFO ] W-9000-test_model_1.0-stdout MODEL_LOG -       (bn2): BatchNorm2d(64, eps=1e-05, momentum=0.1, affine=True, track_running_stats=True)
2023-09-20T19:20:14,462 [INFO ] W-9000-test_model_1.0-stdout MODEL_LOG -       (conv3): Conv2d(64, 256, kernel_size=(1, 1), stride=(1, 1), bias=False)
2023-09-20T19:20:14,462 [DEBUG] W-9000-test_model_1.0 org.pytorch.serve.wlm.WorkerThread - sent a reply, jobdone: true
2023-09-20T19:20:14,462 [INFO ] W-9000-test_model_1.0-stdout MODEL_LOG -       (bn3): BatchNorm2d(256, eps=1e-05, momentum=0.1, affine=True, track_running_stats=True)
2023-09-20T19:20:14,462 [DEBUG] W-9000-test_model_1.0 org.pytorch.serve.wlm.WorkerThread - sent a reply, jobdone: true
2023-09-20T19:20:14,462 [INFO ] W-9000-test_model_1.0 org.pytorch.serve.wlm.WorkerThread - Backend response time: 605
2023-09-20T19:20:14,462 [INFO ] W-9000-test_model_1.0-stdout MODEL_LOG -       (relu): ReLU(inplace=True)
2023-09-20T19:20:14,463 [INFO ] W-9000-test_model_1.0-stdout MODEL_LOG -     )
2023-09-20T19:20:14,463 [INFO ] W-9000-test_model_1.0-stdout MODEL_LOG -   )
2023-09-20T19:20:14,463 [INFO ] W-9000-test_model_1.0-stdout MODEL_LOG -   (layer2): Sequential(
2023-09-20T19:20:14,462 [INFO ] W-9000-test_model_1.0 org.pytorch.serve.wlm.WorkerThread - Backend response time: 605
2023-09-20T19:20:14,463 [INFO ] W-9000-test_model_1.0-stdout MODEL_LOG -     (0): Bottleneck(
2023-09-20T19:20:14,463 [INFO ] W-9000-test_model_1.0-stdout MODEL_LOG -       (conv1): Conv2d(256, 128, kernel_size=(1, 1), stride=(1, 1), bias=False)
2023-09-20T19:20:14,463 [INFO ] W-9000-test_model_1.0-stdout MODEL_LOG -       (bn1): BatchNorm2d(128, eps=1e-05, momentum=0.1, affine=True, track_running_stats=True)
2023-09-20T19:20:14,464 [INFO ] W-9000-test_model_1.0-stdout MODEL_LOG -       (conv2): Conv2d(128, 128, kernel_size=(3, 3), stride=(2, 2), padding=(1, 1), bias=False)
2023-09-20T19:20:14,464 [INFO ] W-9000-test_model_1.0-stdout MODEL_LOG -       (bn2): BatchNorm2d(128, eps=1e-05, momentum=0.1, affine=True, track_running_stats=True)
2023-09-20T19:20:14,464 [DEBUG] W-9000-test_model_1.0 org.pytorch.serve.wlm.WorkerThread - W-9000-test_model_1.0 State change WORKER_STARTED -> WORKER_MODEL_LOADED
2023-09-20T19:20:14,464 [INFO ] W-9000-test_model_1.0-stdout MODEL_LOG -       (conv3): Conv2d(128, 512, kernel_size=(1, 1), stride=(1, 1), bias=False)
2023-09-20T19:20:14,464 [DEBUG] W-9000-test_model_1.0 org.pytorch.serve.wlm.WorkerThread - W-9000-test_model_1.0 State change WORKER_STARTED -> WORKER_MODEL_LOADED
2023-09-20T19:20:14,464 [INFO ] W-9000-test_model_1.0-stdout MODEL_LOG -       (bn3): BatchNorm2d(512, eps=1e-05, momentum=0.1, affine=True, track_running_stats=True)
2023-09-20T19:20:14,465 [INFO ] W-9000-test_model_1.0-stdout MODEL_LOG -       (relu): ReLU(inplace=True)
2023-09-20T19:20:14,465 [INFO ] W-9000-test_model_1.0-stdout MODEL_LOG -       (downsample): Sequential(
2023-09-20T19:20:14,465 [INFO ] W-9000-test_model_1.0-stdout MODEL_LOG -         (0): Conv2d(256, 512, kernel_size=(1, 1), stride=(2, 2), bias=False)
2023-09-20T19:20:14,465 [INFO ] W-9000-test_model_1.0-stdout MODEL_LOG -         (1): BatchNorm2d(512, eps=1e-05, momentum=0.1, affine=True, track_running_stats=True)
2023-09-20T19:20:14,465 [INFO ] W-9000-test_model_1.0-stdout MODEL_LOG -       )
2023-09-20T19:20:14,465 [INFO ] W-9000-test_model_1.0-stdout MODEL_LOG -     )
2023-09-20T19:20:14,466 [INFO ] W-9000-test_model_1.0-stdout MODEL_LOG -     (1): Bottleneck(
2023-09-20T19:20:14,466 [INFO ] W-9000-test_model_1.0-stdout MODEL_LOG -       (conv1): Conv2d(512, 128, kernel_size=(1, 1), stride=(1, 1), bias=False)
2023-09-20T19:20:14,466 [INFO ] W-9000-test_model_1.0-stdout MODEL_LOG -       (bn1): BatchNorm2d(128, eps=1e-05, momentum=0.1, affine=True, track_running_stats=True)
2023-09-20T19:20:14,466 [INFO ] W-9000-test_model_1.0-stdout MODEL_LOG -       (conv2): Conv2d(128, 128, kernel_size=(3, 3), stride=(1, 1), padding=(1, 1), bias=False)
2023-09-20T19:20:14,466 [INFO ] W-9000-test_model_1.0-stdout MODEL_LOG -       (bn2): BatchNorm2d(128, eps=1e-05, momentum=0.1, affine=True, track_running_stats=True)
2023-09-20T19:20:14,466 [INFO ] W-9000-test_model_1.0-stdout MODEL_LOG -       (conv3): Conv2d(128, 512, kernel_size=(1, 1), stride=(1, 1), bias=False)
2023-09-20T19:20:14,467 [INFO ] W-9000-test_model_1.0-stdout MODEL_LOG -       (bn3): BatchNorm2d(512, eps=1e-05, momentum=0.1, affine=True, track_running_stats=True)
2023-09-20T19:20:14,467 [INFO ] W-9000-test_model_1.0-stdout MODEL_LOG -       (relu): ReLU(inplace=True)
2023-09-20T19:20:14,467 [INFO ] W-9000-test_model_1.0-stdout MODEL_LOG -     )
2023-09-20T19:20:14,467 [INFO ] W-9000-test_model_1.0-stdout MODEL_LOG -     (2): Bottleneck(
2023-09-20T19:20:14,467 [INFO ] W-9000-test_model_1.0-stdout MODEL_LOG -       (conv1): Conv2d(512, 128, kernel_size=(1, 1), stride=(1, 1), bias=False)
2023-09-20T19:20:14,467 [INFO ] W-9000-test_model_1.0-stdout MODEL_LOG -       (bn1): BatchNorm2d(128, eps=1e-05, momentum=0.1, affine=True, track_running_stats=True)
2023-09-20T19:20:14,467 [INFO ] W-9000-test_model_1.0-stdout MODEL_LOG -       (conv2): Conv2d(128, 128, kernel_size=(3, 3), stride=(1, 1), padding=(1, 1), bias=False)
2023-09-20T19:20:14,467 [INFO ] W-9000-test_model_1.0-stdout MODEL_LOG -       (bn2): BatchNorm2d(128, eps=1e-05, momentum=0.1, affine=True, track_running_stats=True)
2023-09-20T19:20:14,468 [INFO ] W-9000-test_model_1.0-stdout MODEL_LOG -       (conv3): Conv2d(128, 512, kernel_size=(1, 1), stride=(1, 1), bias=False)
2023-09-20T19:20:14,468 [INFO ] W-9000-test_model_1.0-stdout MODEL_LOG -       (bn3): BatchNorm2d(512, eps=1e-05, momentum=0.1, affine=True, track_running_stats=True)
2023-09-20T19:20:14,468 [INFO ] W-9000-test_model_1.0-stdout MODEL_LOG -       (relu): ReLU(inplace=True)
2023-09-20T19:20:14,468 [INFO ] W-9000-test_model_1.0-stdout MODEL_LOG -     )
2023-09-20T19:20:14,468 [INFO ] W-9000-test_model_1.0-stdout MODEL_LOG -     (3): Bottleneck(
2023-09-20T19:20:14,468 [INFO ] W-9000-test_model_1.0-stdout MODEL_LOG -       (conv1): Conv2d(512, 128, kernel_size=(1, 1), stride=(1, 1), bias=False)
2023-09-20T19:20:14,468 [INFO ] W-9000-test_model_1.0-stdout MODEL_LOG -       (bn1): BatchNorm2d(128, eps=1e-05, momentum=0.1, affine=True, track_running_stats=True)
2023-09-20T19:20:14,469 [INFO ] W-9000-test_model_1.0-stdout MODEL_LOG -       (conv2): Conv2d(128, 128, kernel_size=(3, 3), stride=(1, 1), padding=(1, 1), bias=False)
2023-09-20T19:20:14,469 [INFO ] W-9000-test_model_1.0-stdout MODEL_LOG -       (bn2): BatchNorm2d(128, eps=1e-05, momentum=0.1, affine=True, track_running_stats=True)
2023-09-20T19:20:14,469 [INFO ] W-9000-test_model_1.0-stdout MODEL_LOG -       (conv3): Conv2d(128, 512, kernel_size=(1, 1), stride=(1, 1), bias=False)
2023-09-20T19:20:14,468 [INFO ] W-9000-test_model_1.0 TS_METRICS - WorkerLoadTime.Milliseconds:1460.0|#WorkerName:W-9000-test_model_1.0,Level:Host|#hostname:ps2sxr1b9,timestamp:1695237614
2023-09-20T19:20:14,469 [INFO ] W-9000-test_model_1.0-stdout MODEL_LOG -       (bn3): BatchNorm2d(512, eps=1e-05, momentum=0.1, affine=True, track_running_stats=True)
2023-09-20T19:20:14,470 [INFO ] W-9000-test_model_1.0-stdout MODEL_LOG -       (relu): ReLU(inplace=True)
2023-09-20T19:20:14,470 [INFO ] W-9000-test_model_1.0 TS_METRICS - WorkerThreadTime.Milliseconds:44.0|#Level:Host|#hostname:ps2sxr1b9,timestamp:1695237614
2023-09-20T19:20:14,470 [INFO ] W-9000-test_model_1.0-stdout MODEL_LOG -     )
2023-09-20T19:20:14,470 [INFO ] W-9000-test_model_1.0-stdout MODEL_LOG -   )
2023-09-20T19:20:14,470 [INFO ] W-9000-test_model_1.0-stdout MODEL_LOG -   (layer3): Sequential(
2023-09-20T19:20:14,470 [INFO ] W-9000-test_model_1.0-stdout MODEL_LOG -     (0): Bottleneck(
2023-09-20T19:20:14,470 [INFO ] W-9000-test_model_1.0-stdout MODEL_LOG -       (conv1): Conv2d(512, 256, kernel_size=(1, 1), stride=(1, 1), bias=False)
2023-09-20T19:20:14,470 [INFO ] W-9000-test_model_1.0-stdout MODEL_LOG -       (bn1): BatchNorm2d(256, eps=1e-05, momentum=0.1, affine=True, track_running_stats=True)
2023-09-20T19:20:14,470 [INFO ] W-9000-test_model_1.0-stdout MODEL_LOG -       (conv2): Conv2d(256, 256, kernel_size=(3, 3), stride=(2, 2), padding=(1, 1), bias=False)
2023-09-20T19:20:14,471 [INFO ] W-9000-test_model_1.0-stdout MODEL_LOG -       (bn2): BatchNorm2d(256, eps=1e-05, momentum=0.1, affine=True, track_running_stats=True)
2023-09-20T19:20:14,471 [INFO ] W-9000-test_model_1.0-stdout MODEL_LOG -       (conv3): Conv2d(256, 1024, kernel_size=(1, 1), stride=(1, 1), bias=False)
2023-09-20T19:20:14,471 [INFO ] W-9000-test_model_1.0-stdout MODEL_LOG -       (bn3): BatchNorm2d(1024, eps=1e-05, momentum=0.1, affine=True, track_running_stats=True)
2023-09-20T19:20:14,471 [INFO ] W-9000-test_model_1.0-stdout MODEL_LOG -       (relu): ReLU(inplace=True)
2023-09-20T19:20:14,471 [INFO ] W-9000-test_model_1.0-stdout MODEL_LOG -       (downsample): Sequential(
2023-09-20T19:20:14,471 [INFO ] W-9000-test_model_1.0-stdout MODEL_LOG -         (0): Conv2d(512, 1024, kernel_size=(1, 1), stride=(2, 2), bias=False)
2023-09-20T19:20:14,471 [INFO ] W-9000-test_model_1.0-stdout MODEL_LOG -         (1): BatchNorm2d(1024, eps=1e-05, momentum=0.1, affine=True, track_running_stats=True)
2023-09-20T19:20:14,472 [INFO ] W-9000-test_model_1.0-stdout MODEL_LOG -       )
2023-09-20T19:20:14,472 [INFO ] W-9000-test_model_1.0-stdout MODEL_LOG -     )
2023-09-20T19:20:14,472 [INFO ] W-9000-test_model_1.0-stdout MODEL_LOG -     (1): Bottleneck(
2023-09-20T19:20:14,472 [INFO ] W-9000-test_model_1.0-stdout MODEL_LOG -       (conv1): Conv2d(1024, 256, kernel_size=(1, 1), stride=(1, 1), bias=False)
2023-09-20T19:20:14,472 [INFO ] W-9000-test_model_1.0-stdout MODEL_LOG -       (bn1): BatchNorm2d(256, eps=1e-05, momentum=0.1, affine=True, track_running_stats=True)
2023-09-20T19:20:14,472 [INFO ] W-9000-test_model_1.0-stdout MODEL_LOG -       (conv2): Conv2d(256, 256, kernel_size=(3, 3), stride=(1, 1), padding=(1, 1), bias=False)
2023-09-20T19:20:14,472 [INFO ] W-9000-test_model_1.0-stdout MODEL_LOG -       (bn2): BatchNorm2d(256, eps=1e-05, momentum=0.1, affine=True, track_running_stats=True)
2023-09-20T19:20:14,472 [INFO ] W-9000-test_model_1.0-stdout MODEL_LOG -       (conv3): Conv2d(256, 1024, kernel_size=(1, 1), stride=(1, 1), bias=False)
2023-09-20T19:20:14,473 [INFO ] W-9000-test_model_1.0-stdout MODEL_LOG -       (bn3): BatchNorm2d(1024, eps=1e-05, momentum=0.1, affine=True, track_running_stats=True)
2023-09-20T19:20:14,473 [INFO ] W-9000-test_model_1.0-stdout MODEL_LOG -       (relu): ReLU(inplace=True)
2023-09-20T19:20:14,473 [INFO ] W-9000-test_model_1.0-stdout MODEL_LOG -     )
2023-09-20T19:20:14,473 [INFO ] W-9000-test_model_1.0-stdout MODEL_LOG -     (2): Bottleneck(
2023-09-20T19:20:14,473 [INFO ] W-9000-test_model_1.0-stdout MODEL_LOG -       (conv1): Conv2d(1024, 256, kernel_size=(1, 1), stride=(1, 1), bias=False)
2023-09-20T19:20:14,473 [INFO ] W-9000-test_model_1.0-stdout MODEL_LOG -       (bn1): BatchNorm2d(256, eps=1e-05, momentum=0.1, affine=True, track_running_stats=True)
2023-09-20T19:20:14,473 [INFO ] W-9000-test_model_1.0-stdout MODEL_LOG -       (conv2): Conv2d(256, 256, kernel_size=(3, 3), stride=(1, 1), padding=(1, 1), bias=False)
2023-09-20T19:20:14,473 [INFO ] W-9000-test_model_1.0-stdout MODEL_LOG -       (bn2): BatchNorm2d(256, eps=1e-05, momentum=0.1, affine=True, track_running_stats=True)
2023-09-20T19:20:14,474 [INFO ] W-9000-test_model_1.0-stdout MODEL_LOG -       (conv3): Conv2d(256, 1024, kernel_size=(1, 1), stride=(1, 1), bias=False)
2023-09-20T19:20:14,474 [INFO ] W-9000-test_model_1.0-stdout MODEL_LOG -       (bn3): BatchNorm2d(1024, eps=1e-05, momentum=0.1, affine=True, track_running_stats=True)
2023-09-20T19:20:14,474 [INFO ] W-9000-test_model_1.0-stdout MODEL_LOG -       (relu): ReLU(inplace=True)
2023-09-20T19:20:14,474 [INFO ] W-9000-test_model_1.0-stdout MODEL_LOG -     )
2023-09-20T19:20:14,474 [INFO ] W-9000-test_model_1.0-stdout MODEL_LOG -     (3): Bottleneck(
2023-09-20T19:20:14,474 [INFO ] W-9000-test_model_1.0-stdout MODEL_LOG -       (conv1): Conv2d(1024, 256, kernel_size=(1, 1), stride=(1, 1), bias=False)
2023-09-20T19:20:14,474 [INFO ] W-9000-test_model_1.0-stdout MODEL_LOG -       (bn1): BatchNorm2d(256, eps=1e-05, momentum=0.1, affine=True, track_running_stats=True)
2023-09-20T19:20:14,475 [INFO ] W-9000-test_model_1.0-stdout MODEL_LOG -       (conv2): Conv2d(256, 256, kernel_size=(3, 3), stride=(1, 1), padding=(1, 1), bias=False)
2023-09-20T19:20:14,475 [INFO ] W-9000-test_model_1.0-stdout MODEL_LOG -       (bn2): BatchNorm2d(256, eps=1e-05, momentum=0.1, affine=True, track_running_stats=True)
2023-09-20T19:20:14,475 [INFO ] W-9000-test_model_1.0-stdout MODEL_LOG -       (conv3): Conv2d(256, 1024, kernel_size=(1, 1), stride=(1, 1), bias=False)
2023-09-20T19:20:14,475 [INFO ] W-9000-test_model_1.0-stdout MODEL_LOG -       (bn3): BatchNorm2d(1024, eps=1e-05, momentum=0.1, affine=True, track_running_stats=True)
2023-09-20T19:20:14,475 [INFO ] W-9000-test_model_1.0-stdout MODEL_LOG -       (relu): ReLU(inplace=True)
2023-09-20T19:20:14,475 [INFO ] W-9000-test_model_1.0-stdout MODEL_LOG -     )
2023-09-20T19:20:14,476 [INFO ] W-9000-test_model_1.0-stdout MODEL_LOG -     (4): Bottleneck(
2023-09-20T19:20:14,476 [INFO ] W-9000-test_model_1.0-stdout MODEL_LOG -       (conv1): Conv2d(1024, 256, kernel_size=(1, 1), stride=(1, 1), bias=False)
2023-09-20T19:20:14,476 [INFO ] W-9000-test_model_1.0-stdout MODEL_LOG -       (bn1): BatchNorm2d(256, eps=1e-05, momentum=0.1, affine=True, track_running_stats=True)
2023-09-20T19:20:14,476 [INFO ] W-9000-test_model_1.0-stdout MODEL_LOG -       (conv2): Conv2d(256, 256, kernel_size=(3, 3), stride=(1, 1), padding=(1, 1), bias=False)
2023-09-20T19:20:14,476 [INFO ] W-9000-test_model_1.0-stdout MODEL_LOG -       (bn2): BatchNorm2d(256, eps=1e-05, momentum=0.1, affine=True, track_running_stats=True)
2023-09-20T19:20:14,476 [INFO ] W-9000-test_model_1.0-stdout MODEL_LOG -       (conv3): Conv2d(256, 1024, kernel_size=(1, 1), stride=(1, 1), bias=False)
2023-09-20T19:20:14,476 [INFO ] W-9000-test_model_1.0-stdout MODEL_LOG -       (bn3): BatchNorm2d(1024, eps=1e-05, momentum=0.1, affine=True, track_running_stats=True)
2023-09-20T19:20:14,476 [INFO ] W-9000-test_model_1.0-stdout MODEL_LOG -       (relu): ReLU(inplace=True)
2023-09-20T19:20:14,477 [INFO ] W-9000-test_model_1.0-stdout MODEL_LOG -     )
2023-09-20T19:20:14,477 [INFO ] W-9000-test_model_1.0-stdout MODEL_LOG -     (5): Bottleneck(
2023-09-20T19:20:14,477 [INFO ] W-9000-test_model_1.0-stdout MODEL_LOG -       (conv1): Conv2d(1024, 256, kernel_size=(1, 1), stride=(1, 1), bias=False)
2023-09-20T19:20:14,477 [INFO ] W-9000-test_model_1.0-stdout MODEL_LOG -       (bn1): BatchNorm2d(256, eps=1e-05, momentum=0.1, affine=True, track_running_stats=True)
2023-09-20T19:20:14,477 [INFO ] W-9000-test_model_1.0-stdout MODEL_LOG -       (conv2): Conv2d(256, 256, kernel_size=(3, 3), stride=(1, 1), padding=(1, 1), bias=False)
2023-09-20T19:20:14,478 [INFO ] W-9000-test_model_1.0-stdout MODEL_LOG -       (bn2): BatchNorm2d(256, eps=1e-05, momentum=0.1, affine=True, track_running_stats=True)
2023-09-20T19:20:14,478 [INFO ] W-9000-test_model_1.0-stdout MODEL_LOG -       (conv3): Conv2d(256, 1024, kernel_size=(1, 1), stride=(1, 1), bias=False)
2023-09-20T19:20:14,478 [INFO ] W-9000-test_model_1.0-stdout MODEL_LOG -       (bn3): BatchNorm2d(1024, eps=1e-05, momentum=0.1, affine=True, track_running_stats=True)
2023-09-20T19:20:14,478 [INFO ] W-9000-test_model_1.0-stdout MODEL_LOG -       (relu): ReLU(inplace=True)
2023-09-20T19:20:14,478 [INFO ] W-9000-test_model_1.0-stdout MODEL_LOG -     )
2023-09-20T19:20:14,478 [INFO ] W-9000-test_model_1.0-stdout MODEL_LOG -   )
2023-09-20T19:20:14,478 [INFO ] W-9000-test_model_1.0-stdout MODEL_LOG -   (layer4): Sequential(
2023-09-20T19:20:14,478 [INFO ] W-9000-test_model_1.0-stdout MODEL_LOG -     (0): Bottleneck(
2023-09-20T19:20:14,478 [INFO ] W-9000-test_model_1.0-stdout MODEL_LOG -       (conv1): Conv2d(1024, 512, kernel_size=(1, 1), stride=(1, 1), bias=False)
2023-09-20T19:20:14,479 [INFO ] W-9000-test_model_1.0-stdout MODEL_LOG -       (bn1): BatchNorm2d(512, eps=1e-05, momentum=0.1, affine=True, track_running_stats=True)
2023-09-20T19:20:14,479 [INFO ] W-9000-test_model_1.0-stdout MODEL_LOG -       (conv2): Conv2d(512, 512, kernel_size=(3, 3), stride=(2, 2), padding=(1, 1), bias=False)
2023-09-20T19:20:14,479 [INFO ] W-9000-test_model_1.0-stdout MODEL_LOG -       (bn2): BatchNorm2d(512, eps=1e-05, momentum=0.1, affine=True, track_running_stats=True)
2023-09-20T19:20:14,479 [INFO ] W-9000-test_model_1.0-stdout MODEL_LOG -       (conv3): Conv2d(512, 2048, kernel_size=(1, 1), stride=(1, 1), bias=False)
2023-09-20T19:20:14,479 [INFO ] W-9000-test_model_1.0-stdout MODEL_LOG -       (bn3): BatchNorm2d(2048, eps=1e-05, momentum=0.1, affine=True, track_running_stats=True)
2023-09-20T19:20:14,479 [INFO ] W-9000-test_model_1.0-stdout MODEL_LOG -       (relu): ReLU(inplace=True)
2023-09-20T19:20:14,479 [INFO ] W-9000-test_model_1.0-stdout MODEL_LOG -       (downsample): Sequential(
2023-09-20T19:20:14,479 [INFO ] W-9000-test_model_1.0-stdout MODEL_LOG -         (0): Conv2d(1024, 2048, kernel_size=(1, 1), stride=(2, 2), bias=False)
2023-09-20T19:20:14,479 [INFO ] W-9000-test_model_1.0-stdout MODEL_LOG -         (1): BatchNorm2d(2048, eps=1e-05, momentum=0.1, affine=True, track_running_stats=True)
2023-09-20T19:20:14,480 [INFO ] W-9000-test_model_1.0-stdout MODEL_LOG -       )
2023-09-20T19:20:14,480 [INFO ] W-9000-test_model_1.0-stdout MODEL_LOG -     )
2023-09-20T19:20:14,480 [INFO ] W-9000-test_model_1.0-stdout MODEL_LOG -     (1): Bottleneck(
2023-09-20T19:20:14,480 [INFO ] W-9000-test_model_1.0-stdout MODEL_LOG -       (conv1): Conv2d(2048, 512, kernel_size=(1, 1), stride=(1, 1), bias=False)
2023-09-20T19:20:14,480 [INFO ] W-9000-test_model_1.0-stdout MODEL_LOG -       (bn1): BatchNorm2d(512, eps=1e-05, momentum=0.1, affine=True, track_running_stats=True)
2023-09-20T19:20:14,480 [INFO ] W-9000-test_model_1.0-stdout MODEL_LOG -       (conv2): Conv2d(512, 512, kernel_size=(3, 3), stride=(1, 1), padding=(1, 1), bias=False)
2023-09-20T19:20:14,480 [INFO ] W-9000-test_model_1.0-stdout MODEL_LOG -       (bn2): BatchNorm2d(512, eps=1e-05, momentum=0.1, affine=True, track_running_stats=True)
2023-09-20T19:20:14,480 [INFO ] W-9000-test_model_1.0-stdout MODEL_LOG -       (conv3): Conv2d(512, 2048, kernel_size=(1, 1), stride=(1, 1), bias=False)
2023-09-20T19:20:14,480 [INFO ] W-9000-test_model_1.0-stdout MODEL_LOG -       (bn3): BatchNorm2d(2048, eps=1e-05, momentum=0.1, affine=True, track_running_stats=True)
2023-09-20T19:20:14,481 [INFO ] W-9000-test_model_1.0-stdout MODEL_LOG -       (relu): ReLU(inplace=True)
2023-09-20T19:20:14,481 [INFO ] W-9000-test_model_1.0-stdout MODEL_LOG -     )
2023-09-20T19:20:14,481 [INFO ] W-9000-test_model_1.0-stdout MODEL_LOG -     (2): Bottleneck(
2023-09-20T19:20:14,481 [INFO ] W-9000-test_model_1.0-stdout MODEL_LOG -       (conv1): Conv2d(2048, 512, kernel_size=(1, 1), stride=(1, 1), bias=False)
2023-09-20T19:20:14,481 [INFO ] W-9000-test_model_1.0-stdout MODEL_LOG -       (bn1): BatchNorm2d(512, eps=1e-05, momentum=0.1, affine=True, track_running_stats=True)
2023-09-20T19:20:14,481 [INFO ] W-9000-test_model_1.0-stdout MODEL_LOG -       (conv2): Conv2d(512, 512, kernel_size=(3, 3), stride=(1, 1), padding=(1, 1), bias=False)
2023-09-20T19:20:14,481 [INFO ] W-9000-test_model_1.0-stdout MODEL_LOG -       (bn2): BatchNorm2d(512, eps=1e-05, momentum=0.1, affine=True, track_running_stats=True)
2023-09-20T19:20:14,481 [INFO ] W-9000-test_model_1.0-stdout MODEL_LOG -       (conv3): Conv2d(512, 2048, kernel_size=(1, 1), stride=(1, 1), bias=False)
2023-09-20T19:20:14,481 [INFO ] W-9000-test_model_1.0-stdout MODEL_LOG -       (bn3): BatchNorm2d(2048, eps=1e-05, momentum=0.1, affine=True, track_running_stats=True)
2023-09-20T19:20:14,482 [INFO ] W-9000-test_model_1.0-stdout MODEL_LOG -       (relu): ReLU(inplace=True)
2023-09-20T19:20:14,482 [INFO ] W-9000-test_model_1.0-stdout MODEL_LOG -     )
2023-09-20T19:20:14,482 [INFO ] W-9000-test_model_1.0-stdout MODEL_LOG -   )
2023-09-20T19:20:14,482 [INFO ] W-9000-test_model_1.0-stdout MODEL_LOG -   (avgpool): AdaptiveAvgPool2d(output_size=(1, 1))
2023-09-20T19:20:14,482 [INFO ] W-9000-test_model_1.0-stdout MODEL_LOG -   (fc): Linear(in_features=2048, out_features=1000, bias=True)
2023-09-20T19:20:14,482 [INFO ] W-9000-test_model_1.0-stdout MODEL_LOG - )
2023-09-20T19:20:14,482 [INFO ] W-9000-test_model_1.0-stdout MODEL_LOG - MODEL LOADED
2023-09-20T19:20:14,482 [INFO ] W-9000-test_model_1.0-stdout MODEL_LOG - model.pth
2023-09-20T19:21:13,822 [ERROR] Thread-2 org.pytorch.serve.metrics.MetricCollector - Traceback (most recent call last):
…
2023-09-20T20:14:14,072 [INFO ] W-9000-test_model_1.0-stdout MODEL_LOG -   (layer2): Sequential(
2023-09-20T20:14:14,072 [DEBUG] W-9000-test_model_1.0 org.pytorch.serve.wlm.WorkerThread - sent a reply, jobdone: true
2023-09-20T20:14:14,072 [INFO ] W-9000-test_model_1.0-stdout MODEL_LOG -     (0): Bottleneck(
2023-09-20T20:14:14,072 [DEBUG] W-9000-test_model_1.0 org.pytorch.serve.wlm.WorkerThread - sent a reply, jobdone: true
2023-09-20T20:14:14,073 [INFO ] W-9000-test_model_1.0 org.pytorch.serve.wlm.WorkerThread - Backend response time: 3228
2023-09-20T20:14:14,073 [INFO ] W-9000-test_model_1.0-stdout MODEL_LOG -       (conv1): Conv2d(256, 128, kernel_size=(1, 1), stride=(1, 1), bias=False)
2023-09-20T20:14:14,073 [INFO ] W-9000-test_model_1.0 org.pytorch.serve.wlm.WorkerThread - Backend response time: 3228
2023-09-20T20:14:14,073 [INFO ] W-9000-test_model_1.0-stdout MODEL_LOG -       (bn1): BatchNorm2d(128, eps=1e-05, momentum=0.1, affine=True, track_running_stats=True)
2023-09-20T20:14:14,073 [INFO ] W-9000-test_model_1.0-stdout MODEL_LOG -       (conv2): Conv2d(128, 128, kernel_size=(3, 3), stride=(2, 2), padding=(1, 1), bias=False)
2023-09-20T20:14:14,073 [DEBUG] W-9000-test_model_1.0 org.pytorch.serve.wlm.WorkerThread - W-9000-test_model_1.0 State change WORKER_STARTED -> WORKER_MODEL_LOADED
2023-09-20T20:14:14,073 [INFO ] W-9000-test_model_1.0-stdout MODEL_LOG -       (bn2): BatchNorm2d(128, eps=1e-05, momentum=0.1, affine=True, track_running_stats=True)
2023-09-20T20:14:14,073 [DEBUG] W-9000-test_model_1.0 org.pytorch.serve.wlm.WorkerThread - W-9000-test_model_1.0 State change WORKER_STARTED -> WORKER_MODEL_LOADED
2023-09-20T20:14:14,074 [INFO ] W-9000-test_model_1.0-stdout MODEL_LOG -       (conv3): Conv2d(128, 512, kernel_size=(1, 1), stride=(1, 1), bias=False)
2023-09-20T20:14:14,074 [INFO ] W-9000-test_model_1.0-stdout MODEL_LOG -       (bn3): BatchNorm2d(512, eps=1e-05, momentum=0.1, affine=True, track_running_stats=True)
2023-09-20T20:14:14,074 [INFO ] W-9000-test_model_1.0-stdout MODEL_LOG -       (relu): ReLU(inplace=True)
2023-09-20T20:14:14,074 [INFO ] W-9000-test_model_1.0-stdout MODEL_LOG -       (downsample): Sequential(
2023-09-20T20:14:14,074 [INFO ] W-9000-test_model_1.0-stdout MODEL_LOG -         (0): Conv2d(256, 512, kernel_size=(1, 1), stride=(2, 2), bias=False)
2023-09-20T20:14:14,074 [INFO ] W-9000-test_model_1.0-stdout MODEL_LOG -         (1): BatchNorm2d(512, eps=1e-05, momentum=0.1, affine=True, track_running_stats=True)
2023-09-20T20:14:14,075 [INFO ] W-9000-test_model_1.0-stdout MODEL_LOG -       )
2023-09-20T20:14:14,075 [INFO ] W-9000-test_model_1.0-stdout MODEL_LOG -     )
2023-09-20T20:14:14,075 [INFO ] W-9000-test_model_1.0-stdout MODEL_LOG -     (1): Bottleneck(
2023-09-20T20:14:14,075 [INFO ] W-9000-test_model_1.0-stdout MODEL_LOG -       (conv1): Conv2d(512, 128, kernel_size=(1, 1), stride=(1, 1), bias=False)
2023-09-20T20:14:14,075 [INFO ] W-9000-test_model_1.0-stdout MODEL_LOG -       (bn1): BatchNorm2d(128, eps=1e-05, momentum=0.1, affine=True, track_running_stats=True)
2023-09-20T20:14:14,075 [INFO ] W-9000-test_model_1.0-stdout MODEL_LOG -       (conv2): Conv2d(128, 128, kernel_size=(3, 3), stride=(1, 1), padding=(1, 1), bias=False)
2023-09-20T20:14:14,075 [INFO ] W-9000-test_model_1.0-stdout MODEL_LOG -       (bn2): BatchNorm2d(128, eps=1e-05, momentum=0.1, affine=True, track_running_stats=True)
2023-09-20T20:14:14,076 [INFO ] W-9000-test_model_1.0-stdout MODEL_LOG -       (conv3): Conv2d(128, 512, kernel_size=(1, 1), stride=(1, 1), bias=False)
2023-09-20T20:14:14,076 [INFO ] W-9000-test_model_1.0-stdout MODEL_LOG -       (bn3): BatchNorm2d(512, eps=1e-05, momentum=0.1, affine=True, track_running_stats=True)
2023-09-20T20:14:14,076 [INFO ] W-9000-test_model_1.0-stdout MODEL_LOG -       (relu): ReLU(inplace=True)
2023-09-20T20:14:14,076 [INFO ] W-9000-test_model_1.0-stdout MODEL_LOG -     )
2023-09-20T20:14:14,076 [INFO ] W-9000-test_model_1.0-stdout MODEL_LOG -     (2): Bottleneck(
2023-09-20T20:14:14,076 [INFO ] W-9000-test_model_1.0-stdout MODEL_LOG -       (conv1): Conv2d(512, 128, kernel_size=(1, 1), stride=(1, 1), bias=False)
2023-09-20T20:14:14,077 [INFO ] W-9000-test_model_1.0-stdout MODEL_LOG -       (bn1): BatchNorm2d(128, eps=1e-05, momentum=0.1, affine=True, track_running_stats=True)
2023-09-20T20:14:14,077 [INFO ] W-9000-test_model_1.0-stdout MODEL_LOG -       (conv2): Conv2d(128, 128, kernel_size=(3, 3), stride=(1, 1), padding=(1, 1), bias=False)
2023-09-20T20:14:14,077 [INFO ] W-9000-test_model_1.0-stdout MODEL_LOG -       (bn2): BatchNorm2d(128, eps=1e-05, momentum=0.1, affine=True, track_running_stats=True)
2023-09-20T20:14:14,077 [INFO ] W-9000-test_model_1.0-stdout MODEL_LOG -       (conv3): Conv2d(128, 512, kernel_size=(1, 1), stride=(1, 1), bias=False)
2023-09-20T20:14:14,077 [INFO ] W-9000-test_model_1.0-stdout MODEL_LOG -       (bn3): BatchNorm2d(512, eps=1e-05, momentum=0.1, affine=True, track_running_stats=True)
2023-09-20T20:14:14,077 [INFO ] W-9000-test_model_1.0-stdout MODEL_LOG -       (relu): ReLU(inplace=True)
2023-09-20T20:14:14,078 [INFO ] W-9000-test_model_1.0-stdout MODEL_LOG -     )
2023-09-20T20:14:14,078 [INFO ] W-9000-test_model_1.0-stdout MODEL_LOG -     (3): Bottleneck(
2023-09-20T20:14:14,078 [INFO ] W-9000-test_model_1.0 TS_METRICS - WorkerLoadTime.Milliseconds:4239.0|#WorkerName:W-9000-test_model_1.0,Level:Host|#hostname:ps2sxr1b9,timestamp:1695240854
2023-09-20T20:14:14,078 [INFO ] W-9000-test_model_1.0-stdout MODEL_LOG -       (conv1): Conv2d(512, 128, kernel_size=(1, 1), stride=(1, 1), bias=False)
2023-09-20T20:14:14,079 [INFO ] W-9000-test_model_1.0-stdout MODEL_LOG -       (bn1): BatchNorm2d(128, eps=1e-05, momentum=0.1, affine=True, track_running_stats=True)
2023-09-20T20:14:14,079 [INFO ] W-9000-test_model_1.0 TS_METRICS - WorkerThreadTime.Milliseconds:45.0|#Level:Host|#hostname:ps2sxr1b9,timestamp:1695240854
2023-09-20T20:14:14,079 [INFO ] W-9000-test_model_1.0-stdout MODEL_LOG -       (conv2): Conv2d(128, 128, kernel_size=(3, 3), stride=(1, 1), padding=(1, 1), bias=False)
2023-09-20T20:14:14,079 [INFO ] W-9000-test_model_1.0-stdout MODEL_LOG -       (bn2): BatchNorm2d(128, eps=1e-05, momentum=0.1, affine=True, track_running_stats=True)
2023-09-20T20:14:14,079 [INFO ] W-9000-test_model_1.0-stdout MODEL_LOG -       (conv3): Conv2d(128, 512, kernel_size=(1, 1), stride=(1, 1), bias=False)
2023-09-20T20:14:14,079 [INFO ] W-9000-test_model_1.0-stdout MODEL_LOG -       (bn3): BatchNorm2d(512, eps=1e-05, momentum=0.1, affine=True, track_running_stats=True)
2023-09-20T20:14:14,079 [INFO ] W-9000-test_model_1.0-stdout MODEL_LOG -       (relu): ReLU(inplace=True)
2023-09-20T20:14:14,079 [INFO ] W-9000-test_model_1.0-stdout MODEL_LOG -     )
2023-09-20T20:14:14,080 [INFO ] W-9000-test_model_1.0-stdout MODEL_LOG -   )
2023-09-20T20:14:14,080 [INFO ] W-9000-test_model_1.0-stdout MODEL_LOG -   (layer3): Sequential(
2023-09-20T20:14:14,080 [INFO ] W-9000-test_model_1.0-stdout MODEL_LOG -     (0): Bottleneck(
2023-09-20T20:14:14,080 [INFO ] W-9000-test_model_1.0-stdout MODEL_LOG -       (conv1): Conv2d(512, 256, kernel_size=(1, 1), stride=(1, 1), bias=False)
2023-09-20T20:14:14,080 [INFO ] W-9000-test_model_1.0-stdout MODEL_LOG -       (bn1): BatchNorm2d(256, eps=1e-05, momentum=0.1, affine=True, track_running_stats=True)
2023-09-20T20:14:14,080 [INFO ] W-9000-test_model_1.0-stdout MODEL_LOG -       (conv2): Conv2d(256, 256, kernel_size=(3, 3), stride=(2, 2), padding=(1, 1), bias=False)
2023-09-20T20:14:14,080 [INFO ] W-9000-test_model_1.0-stdout MODEL_LOG -       (bn2): BatchNorm2d(256, eps=1e-05, momentum=0.1, affine=True, track_running_stats=True)
2023-09-20T20:14:14,081 [INFO ] W-9000-test_model_1.0-stdout MODEL_LOG -       (conv3): Conv2d(256, 1024, kernel_size=(1, 1), stride=(1, 1), bias=False)
2023-09-20T20:14:14,081 [INFO ] W-9000-test_model_1.0-stdout MODEL_LOG -       (bn3): BatchNorm2d(1024, eps=1e-05, momentum=0.1, affine=True, track_running_stats=True)
2023-09-20T20:14:14,081 [INFO ] W-9000-test_model_1.0-stdout MODEL_LOG -       (relu): ReLU(inplace=True)
2023-09-20T20:14:14,081 [INFO ] W-9000-test_model_1.0-stdout MODEL_LOG -       (downsample): Sequential(
2023-09-20T20:14:14,081 [INFO ] W-9000-test_model_1.0-stdout MODEL_LOG -         (0): Conv2d(512, 1024, kernel_size=(1, 1), stride=(2, 2), bias=False)
2023-09-20T20:14:14,081 [INFO ] W-9000-test_model_1.0-stdout MODEL_LOG -         (1): BatchNorm2d(1024, eps=1e-05, momentum=0.1, affine=True, track_running_stats=True)
2023-09-20T20:14:14,082 [INFO ] W-9000-test_model_1.0-stdout MODEL_LOG -       )
2023-09-20T20:14:14,082 [INFO ] W-9000-test_model_1.0-stdout MODEL_LOG -     )
2023-09-20T20:14:14,082 [INFO ] W-9000-test_model_1.0-stdout MODEL_LOG -     (1): Bottleneck(
2023-09-20T20:14:14,082 [INFO ] W-9000-test_model_1.0-stdout MODEL_LOG -       (conv1): Conv2d(1024, 256, kernel_size=(1, 1), stride=(1, 1), bias=False)
2023-09-20T20:14:14,082 [INFO ] W-9000-test_model_1.0-stdout MODEL_LOG -       (bn1): BatchNorm2d(256, eps=1e-05, momentum=0.1, affine=True, track_running_stats=True)
2023-09-20T20:14:14,082 [INFO ] W-9000-test_model_1.0-stdout MODEL_LOG -       (conv2): Conv2d(256, 256, kernel_size=(3, 3), stride=(1, 1), padding=(1, 1), bias=False)
2023-09-20T20:14:14,082 [INFO ] W-9000-test_model_1.0-stdout MODEL_LOG -       (bn2): BatchNorm2d(256, eps=1e-05, momentum=0.1, affine=True, track_running_stats=True)
2023-09-20T20:14:14,083 [INFO ] W-9000-test_model_1.0-stdout MODEL_LOG -       (conv3): Conv2d(256, 1024, kernel_size=(1, 1), stride=(1, 1), bias=False)
2023-09-20T20:14:14,083 [INFO ] W-9000-test_model_1.0-stdout MODEL_LOG -       (bn3): BatchNorm2d(1024, eps=1e-05, momentum=0.1, affine=True, track_running_stats=True)
2023-09-20T20:14:14,083 [INFO ] W-9000-test_model_1.0-stdout MODEL_LOG -       (relu): ReLU(inplace=True)
2023-09-20T20:14:14,083 [INFO ] W-9000-test_model_1.0-stdout MODEL_LOG -     )
2023-09-20T20:14:14,083 [INFO ] W-9000-test_model_1.0-stdout MODEL_LOG -     (2): Bottleneck(
2023-09-20T20:14:14,083 [INFO ] W-9000-test_model_1.0-stdout MODEL_LOG -       (conv1): Conv2d(1024, 256, kernel_size=(1, 1), stride=(1, 1), bias=False)
2023-09-20T20:14:14,084 [INFO ] W-9000-test_model_1.0-stdout MODEL_LOG -       (bn1): BatchNorm2d(256, eps=1e-05, momentum=0.1, affine=True, track_running_stats=True)
2023-09-20T20:14:14,084 [INFO ] W-9000-test_model_1.0-stdout MODEL_LOG -       (conv2): Conv2d(256, 256, kernel_size=(3, 3), stride=(1, 1), padding=(1, 1), bias=False)
2023-09-20T20:14:14,084 [INFO ] W-9000-test_model_1.0-stdout MODEL_LOG -       (bn2): BatchNorm2d(256, eps=1e-05, momentum=0.1, affine=True, track_running_stats=True)
2023-09-20T20:14:14,084 [INFO ] W-9000-test_model_1.0-stdout MODEL_LOG -       (conv3): Conv2d(256, 1024, kernel_size=(1, 1), stride=(1, 1), bias=False)
2023-09-20T20:14:14,084 [INFO ] W-9000-test_model_1.0-stdout MODEL_LOG -       (bn3): BatchNorm2d(1024, eps=1e-05, momentum=0.1, affine=True, track_running_stats=True)
2023-09-20T20:14:14,084 [INFO ] W-9000-test_model_1.0-stdout MODEL_LOG -       (relu): ReLU(inplace=True)
2023-09-20T20:14:14,084 [INFO ] W-9000-test_model_1.0-stdout MODEL_LOG -     )
2023-09-20T20:14:14,085 [INFO ] W-9000-test_model_1.0-stdout MODEL_LOG -     (3): Bottleneck(
2023-09-20T20:14:14,085 [INFO ] W-9000-test_model_1.0-stdout MODEL_LOG -       (conv1): Conv2d(1024, 256, kernel_size=(1, 1), stride=(1, 1), bias=False)
2023-09-20T20:14:14,085 [INFO ] W-9000-test_model_1.0-stdout MODEL_LOG -       (bn1): BatchNorm2d(256, eps=1e-05, momentum=0.1, affine=True, track_running_stats=True)
2023-09-20T20:14:14,085 [INFO ] W-9000-test_model_1.0-stdout MODEL_LOG -       (conv2): Conv2d(256, 256, kernel_size=(3, 3), stride=(1, 1), padding=(1, 1), bias=False)
2023-09-20T20:14:14,085 [INFO ] W-9000-test_model_1.0-stdout MODEL_LOG -       (bn2): BatchNorm2d(256, eps=1e-05, momentum=0.1, affine=True, track_running_stats=True)
2023-09-20T20:14:14,085 [INFO ] W-9000-test_model_1.0-stdout MODEL_LOG -       (conv3): Conv2d(256, 1024, kernel_size=(1, 1), stride=(1, 1), bias=False)
2023-09-20T20:14:14,086 [INFO ] W-9000-test_model_1.0-stdout MODEL_LOG -       (bn3): BatchNorm2d(1024, eps=1e-05, momentum=0.1, affine=True, track_running_stats=True)
2023-09-20T20:14:14,086 [INFO ] W-9000-test_model_1.0-stdout MODEL_LOG -       (relu): ReLU(inplace=True)
2023-09-20T20:14:14,086 [INFO ] W-9000-test_model_1.0-stdout MODEL_LOG -     )
2023-09-20T20:14:14,086 [INFO ] W-9000-test_model_1.0-stdout MODEL_LOG -     (4): Bottleneck(
2023-09-20T20:14:14,086 [INFO ] W-9000-test_model_1.0-stdout MODEL_LOG -       (conv1): Conv2d(1024, 256, kernel_size=(1, 1), stride=(1, 1), bias=False)
2023-09-20T20:14:14,086 [INFO ] W-9000-test_model_1.0-stdout MODEL_LOG -       (bn1): BatchNorm2d(256, eps=1e-05, momentum=0.1, affine=True, track_running_stats=True)
2023-09-20T20:14:14,086 [INFO ] W-9000-test_model_1.0-stdout MODEL_LOG -       (conv2): Conv2d(256, 256, kernel_size=(3, 3), stride=(1, 1), padding=(1, 1), bias=False)
2023-09-20T20:14:14,086 [INFO ] W-9000-test_model_1.0-stdout MODEL_LOG -       (bn2): BatchNorm2d(256, eps=1e-05, momentum=0.1, affine=True, track_running_stats=True)
2023-09-20T20:14:14,087 [INFO ] W-9000-test_model_1.0-stdout MODEL_LOG -       (conv3): Conv2d(256, 1024, kernel_size=(1, 1), stride=(1, 1), bias=False)
2023-09-20T20:14:14,087 [INFO ] W-9000-test_model_1.0-stdout MODEL_LOG -       (bn3): BatchNorm2d(1024, eps=1e-05, momentum=0.1, affine=True, track_running_stats=True)
2023-09-20T20:14:14,087 [INFO ] W-9000-test_model_1.0-stdout MODEL_LOG -       (relu): ReLU(inplace=True)
2023-09-20T20:14:14,087 [INFO ] W-9000-test_model_1.0-stdout MODEL_LOG -     )
2023-09-20T20:14:14,087 [INFO ] W-9000-test_model_1.0-stdout MODEL_LOG -     (5): Bottleneck(
2023-09-20T20:14:14,087 [INFO ] W-9000-test_model_1.0-stdout MODEL_LOG -       (conv1): Conv2d(1024, 256, kernel_size=(1, 1), stride=(1, 1), bias=False)
2023-09-20T20:14:14,088 [INFO ] W-9000-test_model_1.0-stdout MODEL_LOG -       (bn1): BatchNorm2d(256, eps=1e-05, momentum=0.1, affine=True, track_running_stats=True)
2023-09-20T20:14:14,088 [INFO ] W-9000-test_model_1.0-stdout MODEL_LOG -       (conv2): Conv2d(256, 256, kernel_size=(3, 3), stride=(1, 1), padding=(1, 1), bias=False)
2023-09-20T20:14:14,088 [INFO ] W-9000-test_model_1.0-stdout MODEL_LOG -       (bn2): BatchNorm2d(256, eps=1e-05, momentum=0.1, affine=True, track_running_stats=True)
2023-09-20T20:14:14,088 [INFO ] W-9000-test_model_1.0-stdout MODEL_LOG -       (conv3): Conv2d(256, 1024, kernel_size=(1, 1), stride=(1, 1), bias=False)
2023-09-20T20:14:14,088 [INFO ] W-9000-test_model_1.0-stdout MODEL_LOG -       (bn3): BatchNorm2d(1024, eps=1e-05, momentum=0.1, affine=True, track_running_stats=True)
2023-09-20T20:14:14,088 [INFO ] W-9000-test_model_1.0-stdout MODEL_LOG -       (relu): ReLU(inplace=True)
2023-09-20T20:14:14,088 [INFO ] W-9000-test_model_1.0-stdout MODEL_LOG -     )
2023-09-20T20:14:14,089 [INFO ] W-9000-test_model_1.0-stdout MODEL_LOG -   )
2023-09-20T20:14:14,089 [INFO ] W-9000-test_model_1.0-stdout MODEL_LOG -   (layer4): Sequential(
2023-09-20T20:14:14,089 [INFO ] W-9000-test_model_1.0-stdout MODEL_LOG -     (0): Bottleneck(
2023-09-20T20:14:14,089 [INFO ] W-9000-test_model_1.0-stdout MODEL_LOG -       (conv1): Conv2d(1024, 512, kernel_size=(1, 1), stride=(1, 1), bias=False)
2023-09-20T20:14:14,089 [INFO ] W-9000-test_model_1.0-stdout MODEL_LOG -       (bn1): BatchNorm2d(512, eps=1e-05, momentum=0.1, affine=True, track_running_stats=True)
2023-09-20T20:14:14,089 [INFO ] W-9000-test_model_1.0-stdout MODEL_LOG -       (conv2): Conv2d(512, 512, kernel_size=(3, 3), stride=(2, 2), padding=(1, 1), bias=False)
2023-09-20T20:14:14,089 [INFO ] W-9000-test_model_1.0-stdout MODEL_LOG -       (bn2): BatchNorm2d(512, eps=1e-05, momentum=0.1, affine=True, track_running_stats=True)
2023-09-20T20:14:14,089 [INFO ] W-9000-test_model_1.0-stdout MODEL_LOG -       (conv3): Conv2d(512, 2048, kernel_size=(1, 1), stride=(1, 1), bias=False)
2023-09-20T20:14:14,090 [INFO ] W-9000-test_model_1.0-stdout MODEL_LOG -       (bn3): BatchNorm2d(2048, eps=1e-05, momentum=0.1, affine=True, track_running_stats=True)
2023-09-20T20:14:14,090 [INFO ] W-9000-test_model_1.0-stdout MODEL_LOG -       (relu): ReLU(inplace=True)
2023-09-20T20:14:14,090 [INFO ] W-9000-test_model_1.0-stdout MODEL_LOG -       (downsample): Sequential(
2023-09-20T20:14:14,090 [INFO ] W-9000-test_model_1.0-stdout MODEL_LOG -         (0): Conv2d(1024, 2048, kernel_size=(1, 1), stride=(2, 2), bias=False)
2023-09-20T20:14:14,090 [INFO ] W-9000-test_model_1.0-stdout MODEL_LOG -         (1): BatchNorm2d(2048, eps=1e-05, momentum=0.1, affine=True, track_running_stats=True)
2023-09-20T20:14:14,090 [INFO ] W-9000-test_model_1.0-stdout MODEL_LOG -       )
2023-09-20T20:14:14,090 [INFO ] W-9000-test_model_1.0-stdout MODEL_LOG -     )
2023-09-20T20:14:14,090 [INFO ] W-9000-test_model_1.0-stdout MODEL_LOG -     (1): Bottleneck(
2023-09-20T20:14:14,091 [INFO ] W-9000-test_model_1.0-stdout MODEL_LOG -       (conv1): Conv2d(2048, 512, kernel_size=(1, 1), stride=(1, 1), bias=False)
2023-09-20T20:14:14,091 [INFO ] W-9000-test_model_1.0-stdout MODEL_LOG -       (bn1): BatchNorm2d(512, eps=1e-05, momentum=0.1, affine=True, track_running_stats=True)
2023-09-20T20:14:14,091 [INFO ] W-9000-test_model_1.0-stdout MODEL_LOG -       (conv2): Conv2d(512, 512, kernel_size=(3, 3), stride=(1, 1), padding=(1, 1), bias=False)
2023-09-20T20:14:14,091 [INFO ] W-9000-test_model_1.0-stdout MODEL_LOG -       (bn2): BatchNorm2d(512, eps=1e-05, momentum=0.1, affine=True, track_running_stats=True)
2023-09-20T20:14:14,091 [INFO ] W-9000-test_model_1.0-stdout MODEL_LOG -       (conv3): Conv2d(512, 2048, kernel_size=(1, 1), stride=(1, 1), bias=False)
2023-09-20T20:14:14,091 [INFO ] W-9000-test_model_1.0-stdout MODEL_LOG -       (bn3): BatchNorm2d(2048, eps=1e-05, momentum=0.1, affine=True, track_running_stats=True)
2023-09-20T20:14:14,091 [INFO ] W-9000-test_model_1.0-stdout MODEL_LOG -       (relu): ReLU(inplace=True)
2023-09-20T20:14:14,091 [INFO ] W-9000-test_model_1.0-stdout MODEL_LOG -     )
2023-09-20T20:14:14,091 [INFO ] W-9000-test_model_1.0-stdout MODEL_LOG -     (2): Bottleneck(
2023-09-20T20:14:14,092 [INFO ] W-9000-test_model_1.0-stdout MODEL_LOG -       (conv1): Conv2d(2048, 512, kernel_size=(1, 1), stride=(1, 1), bias=False)
2023-09-20T20:14:14,092 [INFO ] W-9000-test_model_1.0-stdout MODEL_LOG -       (bn1): BatchNorm2d(512, eps=1e-05, momentum=0.1, affine=True, track_running_stats=True)
2023-09-20T20:14:14,092 [INFO ] W-9000-test_model_1.0-stdout MODEL_LOG -       (conv2): Conv2d(512, 512, kernel_size=(3, 3), stride=(1, 1), padding=(1, 1), bias=False)
2023-09-20T20:14:14,092 [INFO ] W-9000-test_model_1.0-stdout MODEL_LOG -       (bn2): BatchNorm2d(512, eps=1e-05, momentum=0.1, affine=True, track_running_stats=True)
2023-09-20T20:14:14,092 [INFO ] W-9000-test_model_1.0-stdout MODEL_LOG -       (conv3): Conv2d(512, 2048, kernel_size=(1, 1), stride=(1, 1), bias=False)
2023-09-20T20:14:14,092 [INFO ] W-9000-test_model_1.0-stdout MODEL_LOG -       (bn3): BatchNorm2d(2048, eps=1e-05, momentum=0.1, affine=True, track_running_stats=True)
2023-09-20T20:14:14,092 [INFO ] W-9000-test_model_1.0-stdout MODEL_LOG -       (relu): ReLU(inplace=True)
2023-09-20T20:14:14,092 [INFO ] W-9000-test_model_1.0-stdout MODEL_LOG -     )
2023-09-20T20:14:14,093 [INFO ] W-9000-test_model_1.0-stdout MODEL_LOG -   )
2023-09-20T20:14:14,093 [INFO ] W-9000-test_model_1.0-stdout MODEL_LOG -   (avgpool): AdaptiveAvgPool2d(output_size=(1, 1))
2023-09-20T20:14:14,093 [INFO ] W-9000-test_model_1.0-stdout MODEL_LOG -   (fc): Linear(in_features=2048, out_features=2, bias=True)
2023-09-20T20:14:14,093 [INFO ] W-9000-test_model_1.0-stdout MODEL_LOG - )
2023-09-20T20:14:14,093 [INFO ] W-9000-test_model_1.0-stdout MODEL_LOG - MODEL LOADED
2023-09-20T20:14:18,687 [INFO ] epollEventLoopGroup-3-1 TS_METRICS - ts_inference_requests_total.Count:1.0|#model_name:test_model,model_version:default|#hostname:ps2sxr1b9,timestamp:1695240858
2023-09-20T20:14:18,690 [INFO ] W-9000-test_model_1.0 org.pytorch.serve.wlm.WorkerThread - Flushing req.cmd PREDICT to backend at: 1695240858690
…
2023-09-20T20:16:32,585 [INFO ] W-9000-test_model_1.0-stdout MODEL_LOG -   (layer1): Sequential(
2023-09-20T20:16:32,585 [DEBUG] W-9000-test_model_1.0 org.pytorch.serve.wlm.WorkerThread - sent a reply, jobdone: true
2023-09-20T20:16:32,585 [INFO ] W-9000-test_model_1.0 org.pytorch.serve.wlm.WorkerThread - Backend response time: 2872
2023-09-20T20:16:32,585 [INFO ] W-9000-test_model_1.0-stdout MODEL_LOG -     (0): Bottleneck(
2023-09-20T20:16:32,585 [INFO ] W-9000-test_model_1.0 org.pytorch.serve.wlm.WorkerThread - Backend response time: 2872
2023-09-20T20:16:32,585 [INFO ] W-9000-test_model_1.0-stdout MODEL_LOG -       (conv1): Conv2d(64, 64, kernel_size=(1, 1), stride=(1, 1), bias=False)
2023-09-20T20:16:32,586 [DEBUG] W-9000-test_model_1.0 org.pytorch.serve.wlm.WorkerThread - W-9000-test_model_1.0 State change WORKER_STARTED -> WORKER_MODEL_LOADED
2023-09-20T20:16:32,586 [INFO ] W-9000-test_model_1.0-stdout MODEL_LOG -       (bn1): BatchNorm2d(64, eps=1e-05, momentum=0.1, affine=True, track_running_stats=True)
2023-09-20T20:16:32,586 [DEBUG] W-9000-test_model_1.0 org.pytorch.serve.wlm.WorkerThread - W-9000-test_model_1.0 State change WORKER_STARTED -> WORKER_MODEL_LOADED
2023-09-20T20:16:32,586 [INFO ] W-9000-test_model_1.0-stdout MODEL_LOG -       (conv2): Conv2d(64, 64, kernel_size=(3, 3), stride=(1, 1), padding=(1, 1), bias=False)
2023-09-20T20:16:32,586 [INFO ] W-9000-test_model_1.0 TS_METRICS - WorkerLoadTime.Milliseconds:3894.0|#WorkerName:W-9000-test_model_1.0,Level:Host|#hostname:ps2sxr1b9,timestamp:1695240992
2023-09-20T20:16:32,587 [INFO ] W-9000-test_model_1.0 TS_METRICS - WorkerThreadTime.Milliseconds:39.0|#Level:Host|#hostname:ps2sxr1b9,timestamp:1695240992
2023-09-20T20:16:32,587 [INFO ] W-9000-test_model_1.0 org.pytorch.serve.wlm.WorkerThread - Flushing req.cmd PREDICT to backend at: 1695240992587
2023-09-20T20:16:32,587 [INFO ] W-9000-test_model_1.0 org.pytorch.serve.wlm.WorkerThread - Flushing req.cmd PREDICT to backend at: 1695240992587
2023-09-20T20:16:32,587 [INFO ] W-9000-test_model_1.0-stdout MODEL_LOG -       (bn2): BatchNorm2d(64, eps=1e-05, momentum=0.1, affine=True, track_running_stats=True)
2023-09-20T20:16:32,588 [INFO ] W-9000-test_model_1.0-stdout MODEL_LOG -       (conv3): Conv2d(64, 256, kernel_size=(1, 1), stride=(1, 1), bias=False)
2023-09-20T20:16:32,588 [INFO ] W-9000-test_model_1.0-stdout MODEL_LOG -       (bn3): BatchNorm2d(256, eps=1e-05, momentum=0.1, affine=True, track_running_stats=True)
2023-09-20T20:16:32,589 [INFO ] W-9000-test_model_1.0-stdout MODEL_LOG -       (relu): ReLU(inplace=True)
2023-09-20T20:16:32,589 [INFO ] W-9000-test_model_1.0-stdout MODEL_LOG -       (downsample): Sequential(
2023-09-20T20:16:32,590 [INFO ] W-9000-test_model_1.0-stdout MODEL_LOG -         (0): Conv2d(64, 256, kernel_size=(1, 1), stride=(1, 1), bias=False)
2023-09-20T20:16:32,591 [INFO ] W-9000-test_model_1.0-stdout MODEL_LOG -         (1): BatchNorm2d(256, eps=1e-05, momentum=0.1, affine=True, track_running_stats=True)
2023-09-20T20:16:32,591 [INFO ] W-9000-test_model_1.0-stdout MODEL_LOG -       )
2023-09-20T20:16:32,591 [INFO ] W-9000-test_model_1.0-stdout MODEL_LOG -     )
2023-09-20T20:16:32,592 [INFO ] W-9000-test_model_1.0-stdout MODEL_LOG -     (1): Bottleneck(
2023-09-20T20:16:32,592 [INFO ] W-9000-test_model_1.0-stdout MODEL_LOG -       (conv1): Conv2d(256, 64, kernel_size=(1, 1), stride=(1, 1), bias=False)
2023-09-20T20:16:32,593 [INFO ] W-9000-test_model_1.0-stdout MODEL_LOG -       (bn1): BatchNorm2d(64, eps=1e-05, momentum=0.1, affine=True, track_running_stats=True)
2023-09-20T20:16:32,594 [INFO ] W-9000-test_model_1.0-stdout MODEL_LOG -       (conv2): Conv2d(64, 64, kernel_size=(3, 3), stride=(1, 1), padding=(1, 1), bias=False)
2023-09-20T20:16:32,594 [INFO ] W-9000-test_model_1.0-stdout MODEL_LOG -       (bn2): BatchNorm2d(64, eps=1e-05, momentum=0.1, affine=True, track_running_stats=True)
2023-09-20T20:16:32,595 [INFO ] W-9000-test_model_1.0-stdout MODEL_LOG -       (conv3): Conv2d(64, 256, kernel_size=(1, 1), stride=(1, 1), bias=False)
2023-09-20T20:16:32,595 [INFO ] W-9000-test_model_1.0-stdout MODEL_LOG -       (bn3): BatchNorm2d(256, eps=1e-05, momentum=0.1, affine=True, track_running_stats=True)
2023-09-20T20:16:32,595 [INFO ] W-9000-test_model_1.0-stdout MODEL_LOG -       (relu): ReLU(inplace=True)
2023-09-20T20:16:32,595 [INFO ] W-9000-test_model_1.0-stdout MODEL_LOG -     )
2023-09-20T20:16:32,596 [INFO ] W-9000-test_model_1.0-stdout MODEL_LOG -     (2): Bottleneck(
2023-09-20T20:16:32,596 [INFO ] W-9000-test_model_1.0-stdout MODEL_LOG -       (conv1): Conv2d(256, 64, kernel_size=(1, 1), stride=(1, 1), bias=False)
2023-09-20T20:16:32,596 [INFO ] W-9000-test_model_1.0-stdout MODEL_LOG -       (bn1): BatchNorm2d(64, eps=1e-05, momentum=0.1, affine=True, track_running_stats=True)
2023-09-20T20:16:32,597 [INFO ] W-9000-test_model_1.0-stdout MODEL_LOG -       (conv2): Conv2d(64, 64, kernel_size=(3, 3), stride=(1, 1), padding=(1, 1), bias=False)
2023-09-20T20:16:32,597 [INFO ] W-9000-test_model_1.0-stdout MODEL_LOG -       (bn2): BatchNorm2d(64, eps=1e-05, momentum=0.1, affine=True, track_running_stats=True)
2023-09-20T20:16:32,598 [INFO ] W-9000-test_model_1.0-stdout MODEL_LOG -       (conv3): Conv2d(64, 256, kernel_size=(1, 1), stride=(1, 1), bias=False)
2023-09-20T20:16:32,598 [INFO ] W-9000-test_model_1.0-stdout MODEL_LOG -       (bn3): BatchNorm2d(256, eps=1e-05, momentum=0.1, affine=True, track_running_stats=True)
2023-09-20T20:16:32,599 [INFO ] W-9000-test_model_1.0-stdout MODEL_LOG -       (relu): ReLU(inplace=True)
2023-09-20T20:16:32,599 [INFO ] W-9000-test_model_1.0-stdout MODEL_LOG -     )
2023-09-20T20:16:32,599 [INFO ] W-9000-test_model_1.0-stdout MODEL_LOG -   )
2023-09-20T20:16:32,599 [INFO ] W-9000-test_model_1.0-stdout MODEL_LOG -   (layer2): Sequential(
2023-09-20T20:16:32,600 [INFO ] W-9000-test_model_1.0-stdout MODEL_LOG -     (0): Bottleneck(
2023-09-20T20:16:32,600 [INFO ] W-9000-test_model_1.0-stdout MODEL_LOG -       (conv1): Conv2d(256, 128, kernel_size=(1, 1), stride=(1, 1), bias=False)
2023-09-20T20:16:32,600 [INFO ] W-9000-test_model_1.0-stdout MODEL_LOG -       (bn1): BatchNorm2d(128, eps=1e-05, momentum=0.1, affine=True, track_running_stats=True)
2023-09-20T20:16:32,601 [INFO ] W-9000-test_model_1.0-stdout MODEL_LOG -       (conv2): Conv2d(128, 128, kernel_size=(3, 3), stride=(2, 2), padding=(1, 1), bias=False)
2023-09-20T20:16:32,601 [INFO ] W-9000-test_model_1.0-stdout MODEL_LOG -       (bn2): BatchNorm2d(128, eps=1e-05, momentum=0.1, affine=True, track_running_stats=True)
2023-09-20T20:16:32,601 [INFO ] W-9000-test_model_1.0-stdout MODEL_LOG -       (conv3): Conv2d(128, 512, kernel_size=(1, 1), stride=(1, 1), bias=False)
2023-09-20T20:16:32,602 [INFO ] W-9000-test_model_1.0-stdout MODEL_LOG -       (bn3): BatchNorm2d(512, eps=1e-05, momentum=0.1, affine=True, track_running_stats=True)
2023-09-20T20:16:32,602 [INFO ] W-9000-test_model_1.0-stdout MODEL_LOG -       (relu): ReLU(inplace=True)
2023-09-20T20:16:32,602 [INFO ] W-9000-test_model_1.0-stdout MODEL_LOG -       (downsample): Sequential(
2023-09-20T20:16:32,603 [INFO ] W-9000-test_model_1.0-stdout MODEL_LOG -         (0): Conv2d(256, 512, kernel_size=(1, 1), stride=(2, 2), bias=False)
2023-09-20T20:16:32,603 [INFO ] W-9000-test_model_1.0-stdout MODEL_LOG -         (1): BatchNorm2d(512, eps=1e-05, momentum=0.1, affine=True, track_running_stats=True)
2023-09-20T20:16:32,603 [INFO ] W-9000-test_model_1.0-stdout MODEL_LOG -       )
2023-09-20T20:16:32,604 [INFO ] W-9000-test_model_1.0-stdout MODEL_LOG -     )
2023-09-20T20:16:32,604 [INFO ] W-9000-test_model_1.0-stdout MODEL_LOG -     (1): Bottleneck(
2023-09-20T20:16:32,604 [INFO ] W-9000-test_model_1.0-stdout MODEL_LOG -       (conv1): Conv2d(512, 128, kernel_size=(1, 1), stride=(1, 1), bias=False)
2023-09-20T20:16:32,605 [INFO ] W-9000-test_model_1.0-stdout MODEL_LOG -       (bn1): BatchNorm2d(128, eps=1e-05, momentum=0.1, affine=True, track_running_stats=True)
2023-09-20T20:16:32,605 [INFO ] W-9000-test_model_1.0-stdout MODEL_LOG -       (conv2): Conv2d(128, 128, kernel_size=(3, 3), stride=(1, 1), padding=(1, 1), bias=False)
2023-09-20T20:16:32,605 [INFO ] W-9000-test_model_1.0-stdout MODEL_LOG -       (bn2): BatchNorm2d(128, eps=1e-05, momentum=0.1, affine=True, track_running_stats=True)
2023-09-20T20:16:32,606 [INFO ] W-9000-test_model_1.0-stdout MODEL_LOG -       (conv3): Conv2d(128, 512, kernel_size=(1, 1), stride=(1, 1), bias=False)
2023-09-20T20:16:32,606 [INFO ] W-9000-test_model_1.0-stdout MODEL_LOG -       (bn3): BatchNorm2d(512, eps=1e-05, momentum=0.1, affine=True, track_running_stats=True)
2023-09-20T20:16:32,606 [INFO ] W-9000-test_model_1.0-stdout MODEL_LOG -       (relu): ReLU(inplace=True)
2023-09-20T20:16:32,606 [INFO ] W-9000-test_model_1.0-stdout MODEL_LOG -     )
2023-09-20T20:16:32,607 [INFO ] W-9000-test_model_1.0-stdout MODEL_LOG -     (2): Bottleneck(
2023-09-20T20:16:32,607 [INFO ] W-9000-test_model_1.0-stdout MODEL_LOG -       (conv1): Conv2d(512, 128, kernel_size=(1, 1), stride=(1, 1), bias=False)
2023-09-20T20:16:32,607 [INFO ] W-9000-test_model_1.0-stdout MODEL_LOG -       (bn1): BatchNorm2d(128, eps=1e-05, momentum=0.1, affine=True, track_running_stats=True)
2023-09-20T20:16:32,608 [INFO ] W-9000-test_model_1.0-stdout MODEL_LOG -       (conv2): Conv2d(128, 128, kernel_size=(3, 3), stride=(1, 1), padding=(1, 1), bias=False)
2023-09-20T20:16:32,608 [INFO ] W-9000-test_model_1.0-stdout MODEL_LOG -       (bn2): BatchNorm2d(128, eps=1e-05, momentum=0.1, affine=True, track_running_stats=True)
2023-09-20T20:16:32,608 [INFO ] W-9000-test_model_1.0-stdout MODEL_LOG -       (conv3): Conv2d(128, 512, kernel_size=(1, 1), stride=(1, 1), bias=False)
2023-09-20T20:16:32,608 [INFO ] W-9000-test_model_1.0-stdout MODEL_LOG -       (bn3): BatchNorm2d(512, eps=1e-05, momentum=0.1, affine=True, track_running_stats=True)
2023-09-20T20:16:32,609 [INFO ] W-9000-test_model_1.0-stdout MODEL_LOG -       (relu): ReLU(inplace=True)
2023-09-20T20:16:32,609 [INFO ] W-9000-test_model_1.0-stdout MODEL_LOG -     )
2023-09-20T20:16:32,609 [INFO ] W-9000-test_model_1.0-stdout MODEL_LOG -     (3): Bottleneck(
2023-09-20T20:16:32,610 [INFO ] W-9000-test_model_1.0-stdout MODEL_LOG -       (conv1): Conv2d(512, 128, kernel_size=(1, 1), stride=(1, 1), bias=False)
2023-09-20T20:16:32,610 [INFO ] W-9000-test_model_1.0-stdout MODEL_LOG -       (bn1): BatchNorm2d(128, eps=1e-05, momentum=0.1, affine=True, track_running_stats=True)
2023-09-20T20:16:32,610 [INFO ] W-9000-test_model_1.0-stdout MODEL_LOG -       (conv2): Conv2d(128, 128, kernel_size=(3, 3), stride=(1, 1), padding=(1, 1), bias=False)
2023-09-20T20:16:32,610 [INFO ] W-9000-test_model_1.0-stdout MODEL_LOG -       (bn2): BatchNorm2d(128, eps=1e-05, momentum=0.1, affine=True, track_running_stats=True)
2023-09-20T20:16:32,611 [INFO ] W-9000-test_model_1.0-stdout MODEL_LOG -       (conv3): Conv2d(128, 512, kernel_size=(1, 1), stride=(1, 1), bias=False)
2023-09-20T20:16:32,611 [INFO ] W-9000-test_model_1.0-stdout MODEL_LOG -       (bn3): BatchNorm2d(512, eps=1e-05, momentum=0.1, affine=True, track_running_stats=True)
2023-09-20T20:16:32,611 [INFO ] W-9000-test_model_1.0-stdout MODEL_LOG -       (relu): ReLU(inplace=True)
2023-09-20T20:16:32,612 [INFO ] W-9000-test_model_1.0-stdout MODEL_LOG -     )
2023-09-20T20:16:32,612 [INFO ] W-9000-test_model_1.0-stdout MODEL_LOG -   )
2023-09-20T20:16:32,612 [INFO ] W-9000-test_model_1.0-stdout MODEL_LOG -   (layer3): Sequential(
2023-09-20T20:16:32,612 [INFO ] W-9000-test_model_1.0-stdout MODEL_LOG -     (0): Bottleneck(
2023-09-20T20:16:32,613 [INFO ] W-9000-test_model_1.0-stdout MODEL_LOG -       (conv1): Conv2d(512, 256, kernel_size=(1, 1), stride=(1, 1), bias=False)
2023-09-20T20:16:32,613 [INFO ] W-9000-test_model_1.0-stdout MODEL_LOG -       (bn1): BatchNorm2d(256, eps=1e-05, momentum=0.1, affine=True, track_running_stats=True)
2023-09-20T20:16:32,613 [INFO ] W-9000-test_model_1.0-stdout MODEL_LOG -       (conv2): Conv2d(256, 256, kernel_size=(3, 3), stride=(2, 2), padding=(1, 1), bias=False)
2023-09-20T20:16:32,614 [INFO ] W-9000-test_model_1.0-stdout MODEL_LOG -       (bn2): BatchNorm2d(256, eps=1e-05, momentum=0.1, affine=True, track_running_stats=True)
2023-09-20T20:16:32,614 [INFO ] W-9000-test_model_1.0-stdout MODEL_LOG -       (conv3): Conv2d(256, 1024, kernel_size=(1, 1), stride=(1, 1), bias=False)
2023-09-20T20:16:32,614 [INFO ] W-9000-test_model_1.0-stdout MODEL_LOG -       (bn3): BatchNorm2d(1024, eps=1e-05, momentum=0.1, affine=True, track_running_stats=True)
2023-09-20T20:16:32,615 [INFO ] W-9000-test_model_1.0-stdout MODEL_LOG -       (relu): ReLU(inplace=True)
2023-09-20T20:16:32,615 [INFO ] W-9000-test_model_1.0-stdout MODEL_LOG -       (downsample): Sequential(
2023-09-20T20:16:32,615 [INFO ] W-9000-test_model_1.0-stdout MODEL_LOG -         (0): Conv2d(512, 1024, kernel_size=(1, 1), stride=(2, 2), bias=False)
2023-09-20T20:16:32,615 [INFO ] W-9000-test_model_1.0-stdout MODEL_LOG -         (1): BatchNorm2d(1024, eps=1e-05, momentum=0.1, affine=True, track_running_stats=True)
2023-09-20T20:16:32,616 [INFO ] W-9000-test_model_1.0-stdout MODEL_LOG -       )
2023-09-20T20:16:32,616 [INFO ] W-9000-test_model_1.0-stdout MODEL_LOG -     )
2023-09-20T20:16:32,616 [INFO ] W-9000-test_model_1.0-stdout MODEL_LOG -     (1): Bottleneck(
2023-09-20T20:16:32,616 [INFO ] W-9000-test_model_1.0-stdout MODEL_LOG -       (conv1): Conv2d(1024, 256, kernel_size=(1, 1), stride=(1, 1), bias=False)
2023-09-20T20:16:32,617 [INFO ] W-9000-test_model_1.0-stdout MODEL_LOG -       (bn1): BatchNorm2d(256, eps=1e-05, momentum=0.1, affine=True, track_running_stats=True)
2023-09-20T20:16:32,617 [INFO ] W-9000-test_model_1.0-stdout MODEL_LOG -       (conv2): Conv2d(256, 256, kernel_size=(3, 3), stride=(1, 1), padding=(1, 1), bias=False)
2023-09-20T20:16:32,617 [INFO ] W-9000-test_model_1.0-stdout MODEL_LOG -       (bn2): BatchNorm2d(256, eps=1e-05, momentum=0.1, affine=True, track_running_stats=True)
2023-09-20T20:16:32,618 [INFO ] W-9000-test_model_1.0-stdout MODEL_LOG -       (conv3): Conv2d(256, 1024, kernel_size=(1, 1), stride=(1, 1), bias=False)
2023-09-20T20:16:32,618 [INFO ] W-9000-test_model_1.0-stdout MODEL_LOG -       (bn3): BatchNorm2d(1024, eps=1e-05, momentum=0.1, affine=True, track_running_stats=True)
2023-09-20T20:16:32,618 [INFO ] W-9000-test_model_1.0-stdout MODEL_LOG -       (relu): ReLU(inplace=True)
2023-09-20T20:16:32,618 [INFO ] W-9000-test_model_1.0-stdout MODEL_LOG -     )
2023-09-20T20:16:32,619 [INFO ] W-9000-test_model_1.0-stdout MODEL_LOG -     (2): Bottleneck(
2023-09-20T20:16:32,619 [INFO ] W-9000-test_model_1.0-stdout MODEL_LOG -       (conv1): Conv2d(1024, 256, kernel_size=(1, 1), stride=(1, 1), bias=False)
2023-09-20T20:16:32,619 [INFO ] W-9000-test_model_1.0-stdout MODEL_LOG -       (bn1): BatchNorm2d(256, eps=1e-05, momentum=0.1, affine=True, track_running_stats=True)
2023-09-20T20:16:32,620 [INFO ] W-9000-test_model_1.0-stdout MODEL_LOG -       (conv2): Conv2d(256, 256, kernel_size=(3, 3), stride=(1, 1), padding=(1, 1), bias=False)
2023-09-20T20:16:32,620 [INFO ] W-9000-test_model_1.0-stdout MODEL_LOG -       (bn2): BatchNorm2d(256, eps=1e-05, momentum=0.1, affine=True, track_running_stats=True)
2023-09-20T20:16:32,620 [INFO ] W-9000-test_model_1.0-stdout MODEL_LOG -       (conv3): Conv2d(256, 1024, kernel_size=(1, 1), stride=(1, 1), bias=False)
2023-09-20T20:16:32,620 [INFO ] W-9000-test_model_1.0-stdout MODEL_LOG -       (bn3): BatchNorm2d(1024, eps=1e-05, momentum=0.1, affine=True, track_running_stats=True)
2023-09-20T20:16:32,621 [INFO ] W-9000-test_model_1.0-stdout MODEL_LOG -       (relu): ReLU(inplace=True)
2023-09-20T20:16:32,621 [INFO ] W-9000-test_model_1.0-stdout MODEL_LOG -     )
2023-09-20T20:16:32,621 [INFO ] W-9000-test_model_1.0-stdout MODEL_LOG -     (3): Bottleneck(
2023-09-20T20:16:32,622 [INFO ] W-9000-test_model_1.0-stdout MODEL_LOG -       (conv1): Conv2d(1024, 256, kernel_size=(1, 1), stride=(1, 1), bias=False)
2023-09-20T20:16:32,622 [INFO ] W-9000-test_model_1.0-stdout MODEL_LOG -       (bn1): BatchNorm2d(256, eps=1e-05, momentum=0.1, affine=True, track_running_stats=True)
2023-09-20T20:16:32,622 [INFO ] W-9000-test_model_1.0-stdout MODEL_LOG -       (conv2): Conv2d(256, 256, kernel_size=(3, 3), stride=(1, 1), padding=(1, 1), bias=False)
2023-09-20T20:16:32,622 [INFO ] W-9000-test_model_1.0-stdout MODEL_LOG -       (bn2): BatchNorm2d(256, eps=1e-05, momentum=0.1, affine=True, track_running_stats=True)
2023-09-20T20:16:32,623 [INFO ] W-9000-test_model_1.0-stdout MODEL_LOG -       (conv3): Conv2d(256, 1024, kernel_size=(1, 1), stride=(1, 1), bias=False)
2023-09-20T20:16:32,623 [INFO ] W-9000-test_model_1.0-stdout MODEL_LOG -       (bn3): BatchNorm2d(1024, eps=1e-05, momentum=0.1, affine=True, track_running_stats=True)
2023-09-20T20:16:32,623 [INFO ] W-9000-test_model_1.0-stdout MODEL_LOG -       (relu): ReLU(inplace=True)
2023-09-20T20:16:32,624 [INFO ] W-9000-test_model_1.0-stdout MODEL_LOG -     )
2023-09-20T20:16:32,624 [INFO ] W-9000-test_model_1.0-stdout MODEL_LOG -     (4): Bottleneck(
2023-09-20T20:16:32,624 [INFO ] W-9000-test_model_1.0-stdout MODEL_LOG -       (conv1): Conv2d(1024, 256, kernel_size=(1, 1), stride=(1, 1), bias=False)
2023-09-20T20:16:32,624 [INFO ] W-9000-test_model_1.0-stdout MODEL_LOG -       (bn1): BatchNorm2d(256, eps=1e-05, momentum=0.1, affine=True, track_running_stats=True)
2023-09-20T20:16:32,625 [INFO ] W-9000-test_model_1.0-stdout MODEL_LOG -       (conv2): Conv2d(256, 256, kernel_size=(3, 3), stride=(1, 1), padding=(1, 1), bias=False)
2023-09-20T20:16:32,625 [INFO ] W-9000-test_model_1.0-stdout MODEL_LOG -       (bn2): BatchNorm2d(256, eps=1e-05, momentum=0.1, affine=True, track_running_stats=True)
2023-09-20T20:16:32,625 [INFO ] W-9000-test_model_1.0-stdout MODEL_LOG -       (conv3): Conv2d(256, 1024, kernel_size=(1, 1), stride=(1, 1), bias=False)
2023-09-20T20:16:32,626 [INFO ] W-9000-test_model_1.0-stdout MODEL_LOG -       (bn3): BatchNorm2d(1024, eps=1e-05, momentum=0.1, affine=True, track_running_stats=True)
2023-09-20T20:16:32,626 [INFO ] W-9000-test_model_1.0-stdout MODEL_LOG -       (relu): ReLU(inplace=True)
2023-09-20T20:16:32,626 [INFO ] W-9000-test_model_1.0-stdout MODEL_LOG -     )
2023-09-20T20:16:32,627 [INFO ] W-9000-test_model_1.0-stdout MODEL_LOG -     (5): Bottleneck(
2023-09-20T20:16:32,627 [INFO ] W-9000-test_model_1.0-stdout MODEL_LOG -       (conv1): Conv2d(1024, 256, kernel_size=(1, 1), stride=(1, 1), bias=False)
2023-09-20T20:16:32,627 [INFO ] W-9000-test_model_1.0-stdout MODEL_LOG -       (bn1): BatchNorm2d(256, eps=1e-05, momentum=0.1, affine=True, track_running_stats=True)
2023-09-20T20:16:32,627 [INFO ] W-9000-test_model_1.0-stdout MODEL_LOG -       (conv2): Conv2d(256, 256, kernel_size=(3, 3), stride=(1, 1), padding=(1, 1), bias=False)
2023-09-20T20:16:32,628 [INFO ] W-9000-test_model_1.0-stdout MODEL_LOG -       (bn2): BatchNorm2d(256, eps=1e-05, momentum=0.1, affine=True, track_running_stats=True)
2023-09-20T20:16:32,628 [INFO ] W-9000-test_model_1.0-stdout MODEL_LOG -       (conv3): Conv2d(256, 1024, kernel_size=(1, 1), stride=(1, 1), bias=False)
2023-09-20T20:16:32,628 [INFO ] W-9000-test_model_1.0-stdout MODEL_LOG -       (bn3): BatchNorm2d(1024, eps=1e-05, momentum=0.1, affine=True, track_running_stats=True)
2023-09-20T20:16:32,629 [INFO ] W-9000-test_model_1.0-stdout MODEL_LOG -       (relu): ReLU(inplace=True)
2023-09-20T20:16:32,629 [INFO ] W-9000-test_model_1.0-stdout MODEL_LOG -     )
2023-09-20T20:16:32,629 [INFO ] W-9000-test_model_1.0-stdout MODEL_LOG -   )
2023-09-20T20:16:32,629 [INFO ] W-9000-test_model_1.0-stdout MODEL_LOG -   (layer4): Sequential(
2023-09-20T20:16:32,630 [INFO ] W-9000-test_model_1.0-stdout MODEL_LOG -     (0): Bottleneck(
2023-09-20T20:16:32,630 [INFO ] W-9000-test_model_1.0-stdout MODEL_LOG -       (conv1): Conv2d(1024, 512, kernel_size=(1, 1), stride=(1, 1), bias=False)
2023-09-20T20:16:32,630 [INFO ] W-9000-test_model_1.0-stdout MODEL_LOG -       (bn1): BatchNorm2d(512, eps=1e-05, momentum=0.1, affine=True, track_running_stats=True)
2023-09-20T20:16:32,630 [INFO ] W-9000-test_model_1.0-stdout MODEL_LOG -       (conv2): Conv2d(512, 512, kernel_size=(3, 3), stride=(2, 2), padding=(1, 1), bias=False)
2023-09-20T20:16:32,631 [INFO ] W-9000-test_model_1.0-stdout MODEL_LOG -       (bn2): BatchNorm2d(512, eps=1e-05, momentum=0.1, affine=True, track_running_stats=True)
2023-09-20T20:16:32,631 [INFO ] W-9000-test_model_1.0-stdout MODEL_LOG -       (conv3): Conv2d(512, 2048, kernel_size=(1, 1), stride=(1, 1), bias=False)
2023-09-20T20:16:32,631 [INFO ] W-9000-test_model_1.0-stdout MODEL_LOG -       (bn3): BatchNorm2d(2048, eps=1e-05, momentum=0.1, affine=True, track_running_stats=True)
2023-09-20T20:16:32,632 [INFO ] W-9000-test_model_1.0-stdout MODEL_LOG -       (relu): ReLU(inplace=True)
2023-09-20T20:16:32,632 [INFO ] W-9000-test_model_1.0-stdout MODEL_LOG -       (downsample): Sequential(
2023-09-20T20:16:32,632 [INFO ] W-9000-test_model_1.0-stdout MODEL_LOG -         (0): Conv2d(1024, 2048, kernel_size=(1, 1), stride=(2, 2), bias=False)
2023-09-20T20:16:32,632 [INFO ] W-9000-test_model_1.0-stdout MODEL_LOG -         (1): BatchNorm2d(2048, eps=1e-05, momentum=0.1, affine=True, track_running_stats=True)
2023-09-20T20:16:32,633 [INFO ] W-9000-test_model_1.0-stdout MODEL_LOG -       )
2023-09-20T20:16:32,633 [INFO ] W-9000-test_model_1.0-stdout MODEL_LOG -     )
2023-09-20T20:16:32,633 [INFO ] W-9000-test_model_1.0-stdout MODEL_LOG -     (1): Bottleneck(
2023-09-20T20:16:32,634 [INFO ] W-9000-test_model_1.0-stdout MODEL_LOG -       (conv1): Conv2d(2048, 512, kernel_size=(1, 1), stride=(1, 1), bias=False)
2023-09-20T20:16:32,634 [INFO ] W-9000-test_model_1.0-stdout MODEL_LOG -       (bn1): BatchNorm2d(512, eps=1e-05, momentum=0.1, affine=True, track_running_stats=True)
2023-09-20T20:16:32,634 [INFO ] W-9000-test_model_1.0-stdout MODEL_LOG -       (conv2): Conv2d(512, 512, kernel_size=(3, 3), stride=(1, 1), padding=(1, 1), bias=False)
2023-09-20T20:16:32,634 [INFO ] W-9000-test_model_1.0-stdout MODEL_LOG -       (bn2): BatchNorm2d(512, eps=1e-05, momentum=0.1, affine=True, track_running_stats=True)
2023-09-20T20:16:32,635 [INFO ] W-9000-test_model_1.0-stdout MODEL_LOG -       (conv3): Conv2d(512, 2048, kernel_size=(1, 1), stride=(1, 1), bias=False)
2023-09-20T20:16:32,635 [INFO ] W-9000-test_model_1.0-stdout MODEL_LOG -       (bn3): BatchNorm2d(2048, eps=1e-05, momentum=0.1, affine=True, track_running_stats=True)
2023-09-20T20:16:32,635 [INFO ] W-9000-test_model_1.0-stdout MODEL_LOG -       (relu): ReLU(inplace=True)
2023-09-20T20:16:32,635 [INFO ] W-9000-test_model_1.0-stdout MODEL_LOG -     )
2023-09-20T20:16:32,636 [INFO ] W-9000-test_model_1.0-stdout MODEL_LOG -     (2): Bottleneck(
2023-09-20T20:16:32,636 [INFO ] W-9000-test_model_1.0-stdout MODEL_LOG -       (conv1): Conv2d(2048, 512, kernel_size=(1, 1), stride=(1, 1), bias=False)
2023-09-20T20:16:32,636 [INFO ] W-9000-test_model_1.0-stdout MODEL_LOG -       (bn1): BatchNorm2d(512, eps=1e-05, momentum=0.1, affine=True, track_running_stats=True)
2023-09-20T20:16:32,636 [INFO ] W-9000-test_model_1.0-stdout MODEL_LOG -       (conv2): Conv2d(512, 512, kernel_size=(3, 3), stride=(1, 1), padding=(1, 1), bias=False)
2023-09-20T20:16:32,637 [INFO ] W-9000-test_model_1.0-stdout MODEL_LOG -       (bn2): BatchNorm2d(512, eps=1e-05, momentum=0.1, affine=True, track_running_stats=True)
2023-09-20T20:16:32,637 [INFO ] W-9000-test_model_1.0-stdout MODEL_LOG -       (conv3): Conv2d(512, 2048, kernel_size=(1, 1), stride=(1, 1), bias=False)
2023-09-20T20:16:32,637 [INFO ] W-9000-test_model_1.0-stdout MODEL_LOG -       (bn3): BatchNorm2d(2048, eps=1e-05, momentum=0.1, affine=True, track_running_stats=True)
2023-09-20T20:16:32,638 [INFO ] W-9000-test_model_1.0-stdout MODEL_LOG -       (relu): ReLU(inplace=True)
2023-09-20T20:16:32,638 [INFO ] W-9000-test_model_1.0-stdout MODEL_LOG -     )
2023-09-20T20:16:32,638 [INFO ] W-9000-test_model_1.0-stdout MODEL_LOG -   )
2023-09-20T20:16:32,638 [INFO ] W-9000-test_model_1.0-stdout MODEL_LOG -   (avgpool): AdaptiveAvgPool2d(output_size=(1, 1))
2023-09-20T20:16:32,638 [INFO ] W-9000-test_model_1.0 ACCESS_LOG - /127.0.0.1:35758 "POST /predictions/test_model HTTP/1.1" 503 1443
2023-09-20T20:16:32,639 [INFO ] W-9000-test_model_1.0-stdout MODEL_LOG -   (fc): Linear(in_features=2048, out_features=2, bias=True)
2023-09-20T20:16:32,639 [INFO ] W-9000-test_model_1.0 TS_METRICS - Requests5XX.Count:1.0|#Level:Host|#hostname:ps2sxr1b9,timestamp:1695240992
2023-09-20T20:16:32,639 [INFO ] W-9000-test_model_1.0-stdout MODEL_LOG - )
2023-09-20T20:16:32,639 [INFO ] W-9000-test_model_1.0-stdout MODEL_LOG - MODEL LOADED
2023-09-20T20:16:32,640 [INFO ] W-9000-test_model_1.0-stdout MODEL_LOG - Backend received inference at: 1695240992
…
2023-09-20T20:20:41,878 [INFO ] W-9000-test_model_1.0-stdout MODEL_LOG -   File "/home/paperspace/Documents/new_env/lib/python3.9/site-packages/ts/torch_handler/base_handler.py", line 358, in handle
2023-09-20T20:20:41,878 [INFO ] W-9000-test_model_1.0-stdout MODEL_LOG -     output = self.inference(data_preprocess)
2023-09-20T20:20:41,879 [INFO ] W-9000-test_model_1.0-stdout MODEL_LOG -   File "/tmp/models/767b03cf24834834a7d90d297aa90358/handler.py", line 65, in inference
2023-09-20T20:20:41,879 [INFO ] W-9000-test_model_1.0-stdout MODEL_LOG -     outputs = self.model(**inputs)
2023-09-20T20:20:41,879 [INFO ] W-9000-test_model_1.0-stdout MODEL_LOG - TypeError: ResNet(
2023-09-20T20:20:41,879 [INFO ] W-9000-test_model_1.0-stdout MODEL_LOG -   (conv1): Conv2d(3, 64, kernel_size=(7, 7), stride=(2, 2), padding=(3, 3), bias=False)
2023-09-20T20:20:41,880 [INFO ] W-9000-test_model_1.0-stdout MODEL_LOG -   (bn1): BatchNorm2d(64, eps=1e-05, momentum=0.1, affine=True, track_running_stats=True)
2023-09-20T20:20:41,880 [INFO ] W-9000-test_model_1.0-stdout MODEL_LOG -   (relu): ReLU(inplace=True)
2023-09-20T20:20:41,880 [INFO ] W-9000-test_model_1.0-stdout MODEL_LOG -   (maxpool): MaxPool2d(kernel_size=3, stride=2, padding=1, dilation=1, ceil_mode=False)
2023-09-20T20:20:41,881 [INFO ] W-9000-test_model_1.0-stdout MODEL_LOG -   (layer1): Sequential(
2023-09-20T20:20:41,881 [INFO ] W-9000-test_model_1.0-stdout MODEL_LOG -     (0): Bottleneck(
2023-09-20T20:20:41,881 [INFO ] W-9000-test_model_1.0-stdout MODEL_LOG -       (conv1): Conv2d(64, 64, kernel_size=(1, 1), stride=(1, 1), bias=False)
2023-09-20T20:20:41,881 [INFO ] W-9000-test_model_1.0-stdout MODEL_LOG -       (bn1): BatchNorm2d(64, eps=1e-05, momentum=0.1, affine=True, track_running_stats=True)
2023-09-20T20:20:41,882 [INFO ] W-9000-test_model_1.0-stdout MODEL_LOG -       (conv2): Conv2d(64, 64, kernel_size=(3, 3), stride=(1, 1), padding=(1, 1), bias=False)
2023-09-20T20:20:41,882 [INFO ] W-9000-test_model_1.0-stdout MODEL_LOG -       (bn2): BatchNorm2d(64, eps=1e-05, momentum=0.1, affine=True, track_running_stats=True)
2023-09-20T20:20:41,883 [INFO ] W-9000-test_model_1.0-stdout MODEL_LOG -       (conv3): Conv2d(64, 256, kernel_size=(1, 1), stride=(1, 1), bias=False)
2023-09-20T20:20:41,883 [INFO ] W-9000-test_model_1.0-stdout MODEL_LOG -       (bn3): BatchNorm2d(256, eps=1e-05, momentum=0.1, affine=True, track_running_stats=True)
2023-09-20T20:20:41,883 [INFO ] W-9000-test_model_1.0-stdout MODEL_LOG -       (relu): ReLU(inplace=True)
2023-09-20T20:20:41,884 [INFO ] W-9000-test_model_1.0-stdout MODEL_LOG -       (downsample): Sequential(
2023-09-20T20:20:41,884 [INFO ] W-9000-test_model_1.0-stdout MODEL_LOG -         (0): Conv2d(64, 256, kernel_size=(1, 1), stride=(1, 1), bias=False)
2023-09-20T20:20:41,885 [INFO ] W-9000-test_model_1.0-stdout MODEL_LOG -         (1): BatchNorm2d(256, eps=1e-05, momentum=0.1, affine=True, track_running_stats=True)
2023-09-20T20:20:41,885 [INFO ] W-9000-test_model_1.0-stdout MODEL_LOG -       )
2023-09-20T20:20:41,885 [INFO ] W-9000-test_model_1.0-stdout MODEL_LOG -     )
2023-09-20T20:20:41,885 [INFO ] W-9000-test_model_1.0-stdout MODEL_LOG -     (1): Bottleneck(
2023-09-20T20:20:41,886 [INFO ] W-9000-test_model_1.0-stdout MODEL_LOG -       (conv1): Conv2d(256, 64, kernel_size=(1, 1), stride=(1, 1), bias=False)
2023-09-20T20:20:41,886 [INFO ] W-9000-test_model_1.0-stdout MODEL_LOG -       (bn1): BatchNorm2d(64, eps=1e-05, momentum=0.1, affine=True, track_running_stats=True)
2023-09-20T20:20:41,886 [INFO ] W-9000-test_model_1.0-stdout MODEL_LOG -       (conv2): Conv2d(64, 64, kernel_size=(3, 3), stride=(1, 1), padding=(1, 1), bias=False)
2023-09-20T20:20:41,887 [INFO ] W-9000-test_model_1.0-stdout MODEL_LOG -       (bn2): BatchNorm2d(64, eps=1e-05, momentum=0.1, affine=True, track_running_stats=True)
2023-09-20T20:20:41,887 [INFO ] W-9000-test_model_1.0-stdout MODEL_LOG -       (conv3): Conv2d(64, 256, kernel_size=(1, 1), stride=(1, 1), bias=False)
2023-09-20T20:20:41,888 [INFO ] W-9000-test_model_1.0-stdout MODEL_LOG -       (bn3): BatchNorm2d(256, eps=1e-05, momentum=0.1, affine=True, track_running_stats=True)
2023-09-20T20:20:41,889 [INFO ] W-9000-test_model_1.0-stdout MODEL_LOG -       (relu): ReLU(inplace=True)
2023-09-20T20:20:41,889 [INFO ] W-9000-test_model_1.0 ACCESS_LOG - /127.0.0.1:60812 "POST /predictions/test_model HTTP/1.1" 503 46
2023-09-20T20:20:41,889 [INFO ] W-9000-test_model_1.0-stdout MODEL_LOG -     )
2023-09-20T20:20:41,890 [INFO ] W-9000-test_model_1.0 TS_METRICS - Requests5XX.Count:1.0|#Level:Host|#hostname:ps2sxr1b9,timestamp:1695241241
…
2023-09-20T20:20:41,890 [DEBUG] W-9000-test_model_1.0 org.pytorch.serve.job.Job - Waiting time ns: 319224, Inference time ns: 43586350
2023-09-20T20:20:41,891 [DEBUG] W-9000-test_model_1.0 org.pytorch.serve.wlm.WorkerThread - sent a reply, jobdone: true
2023-09-20T20:20:41,891 [DEBUG] W-9000-test_model_1.0 org.pytorch.serve.wlm.WorkerThread - sent a reply, jobdone: true
2023-09-20T20:20:41,891 [INFO ] W-9000-test_model_1.0 org.pytorch.serve.wlm.WorkerThread - Backend response time: 29
2023-09-20T20:20:41,891 [INFO ] W-9000-test_model_1.0 org.pytorch.serve.wlm.WorkerThread - Backend response time: 29
2023-09-20T20:20:41,891 [INFO ] W-9000-test_model_1.0-stdout MODEL_LOG -       (conv1): Conv2d(256, 64, kernel_size=(1, 1), stride=(1, 1), bias=False)
2023-09-20T20:20:41,893 [INFO ] W-9000-test_model_1.0 TS_METRICS - WorkerThreadTime.Milliseconds:17.0|#Level:Host|#hostname:ps2sxr1b9,timestamp:1695241241
2023-09-20T20:20:41,893 [INFO ] W-9000-test_model_1.0-stdout MODEL_LOG -       (bn1): BatchNorm2d(64, eps=1e-05, momentum=0.1, affine=True, track_running_stats=True)
2023-09-20T20:20:41,893 [INFO ] W-9000-test_model_1.0-stdout MODEL_LOG -       (conv2): Conv2d(64, 64, kernel_size=(3, 3), stride=(1, 1), padding=(1, 1), bias=False)
2023-09-20T20:20:41,894 [INFO ] W-9000-test_model_1.0-stdout MODEL_LOG -       (bn2): BatchNorm2d(64, eps=1e-05, momentum=0.1, affine=True, track_running_stats=True)
2023-09-20T20:20:41,894 [INFO ] W-9000-test_model_1.0-stdout MODEL_LOG -       (conv3): Conv2d(64, 256, kernel_size=(1, 1), stride=(1, 1), bias=False)
2023-09-20T20:20:41,894 [INFO ] W-9000-test_model_1.0-stdout MODEL_LOG -       (bn3): BatchNorm2d(256, eps=1e-05, momentum=0.1, affine=True, track_running_stats=True)
2023-09-20T20:20:41,894 [INFO ] W-9000-test_model_1.0-stdout MODEL_LOG -       (relu): ReLU(inplace=True)
2023-09-20T20:20:41,895 [INFO ] W-9000-test_model_1.0-stdout MODEL_LOG -     )
2023-09-20T20:20:41,895 [INFO ] W-9000-test_model_1.0-stdout MODEL_LOG -   )
2023-09-20T20:20:41,895 [INFO ] W-9000-test_model_1.0-stdout MODEL_LOG -   (layer2): Sequential(
2023-09-20T20:20:41,895 [INFO ] W-9000-test_model_1.0-stdout MODEL_LOG -     (0): Bottleneck(
2023-09-20T20:20:41,896 [INFO ] W-9000-test_model_1.0-stdout MODEL_LOG -       (conv1): Conv2d(256, 128, kernel_size=(1, 1), stride=(1, 1), bias=False)
2023-09-20T20:20:41,896 [INFO ] W-9000-test_model_1.0-stdout MODEL_LOG -       (bn1): BatchNorm2d(128, eps=1e-05, momentum=0.1, affine=True, track_running_stats=True)
2023-09-20T20:20:41,896 [INFO ] W-9000-test_model_1.0-stdout MODEL_LOG -       (conv2): Conv2d(128, 128, kernel_size=(3, 3), stride=(2, 2), padding=(1, 1), bias=False)
2023-09-20T20:20:41,896 [INFO ] W-9000-test_model_1.0-stdout MODEL_LOG -       (bn2): BatchNorm2d(128, eps=1e-05, momentum=0.1, affine=True, track_running_stats=True)
2023-09-20T20:20:41,897 [INFO ] W-9000-test_model_1.0-stdout MODEL_LOG -       (conv3): Conv2d(128, 512, kernel_size=(1, 1), stride=(1, 1), bias=False)
2023-09-20T20:20:41,897 [INFO ] W-9000-test_model_1.0-stdout MODEL_LOG -       (bn3): BatchNorm2d(512, eps=1e-05, momentum=0.1, affine=True, track_running_stats=True)
2023-09-20T20:20:41,897 [INFO ] W-9000-test_model_1.0-stdout MODEL_LOG -       (relu): ReLU(inplace=True)
2023-09-20T20:20:41,898 [INFO ] W-9000-test_model_1.0-stdout MODEL_LOG -       (downsample): Sequential(
2023-09-20T20:20:41,898 [INFO ] W-9000-test_model_1.0-stdout MODEL_LOG -         (0): Conv2d(256, 512, kernel_size=(1, 1), stride=(2, 2), bias=False)
2023-09-20T20:20:41,898 [INFO ] W-9000-test_model_1.0-stdout MODEL_LOG -         (1): BatchNorm2d(512, eps=1e-05, momentum=0.1, affine=True, track_running_stats=True)
2023-09-20T20:20:41,898 [INFO ] W-9000-test_model_1.0-stdout MODEL_LOG -       )
2023-09-20T20:20:41,898 [INFO ] W-9000-test_model_1.0-stdout MODEL_LOG -     )
2023-09-20T20:20:41,899 [INFO ] W-9000-test_model_1.0-stdout MODEL_LOG -     (1): Bottleneck(
2023-09-20T20:20:41,899 [INFO ] W-9000-test_model_1.0-stdout MODEL_LOG -       (conv1): Conv2d(512, 128, kernel_size=(1, 1), stride=(1, 1), bias=False)
2023-09-20T20:20:41,899 [INFO ] W-9000-test_model_1.0-stdout MODEL_LOG -       (bn1): BatchNorm2d(128, eps=1e-05, momentum=0.1, affine=True, track_running_stats=True)
2023-09-20T20:20:41,899 [INFO ] W-9000-test_model_1.0-stdout MODEL_LOG -       (conv2): Conv2d(128, 128, kernel_size=(3, 3), stride=(1, 1), padding=(1, 1), bias=False)
2023-09-20T20:20:41,900 [INFO ] W-9000-test_model_1.0-stdout MODEL_LOG -       (bn2): BatchNorm2d(128, eps=1e-05, momentum=0.1, affine=True, track_running_stats=True)
2023-09-20T20:20:41,900 [INFO ] W-9000-test_model_1.0-stdout MODEL_LOG -       (conv3): Conv2d(128, 512, kernel_size=(1, 1), stride=(1, 1), bias=False)
2023-09-20T20:20:41,900 [INFO ] W-9000-test_model_1.0-stdout MODEL_LOG -       (bn3): BatchNorm2d(512, eps=1e-05, momentum=0.1, affine=True, track_running_stats=True)
2023-09-20T20:20:41,900 [INFO ] W-9000-test_model_1.0-stdout MODEL_LOG -       (relu): ReLU(inplace=True)
2023-09-20T20:20:41,900 [INFO ] W-9000-test_model_1.0-stdout MODEL_LOG -     )
2023-09-20T20:20:41,901 [INFO ] W-9000-test_model_1.0-stdout MODEL_LOG -     (2): Bottleneck(
2023-09-20T20:20:41,901 [INFO ] W-9000-test_model_1.0-stdout MODEL_LOG -       (conv1): Conv2d(512, 128, kernel_size=(1, 1), stride=(1, 1), bias=False)
2023-09-20T20:20:41,901 [INFO ] W-9000-test_model_1.0-stdout MODEL_LOG -       (bn1): BatchNorm2d(128, eps=1e-05, momentum=0.1, affine=True, track_running_stats=True)
2023-09-20T20:20:41,901 [INFO ] W-9000-test_model_1.0-stdout MODEL_LOG -       (conv2): Conv2d(128, 128, kernel_size=(3, 3), stride=(1, 1), padding=(1, 1), bias=False)
2023-09-20T20:20:41,902 [INFO ] W-9000-test_model_1.0-stdout MODEL_LOG -       (bn2): BatchNorm2d(128, eps=1e-05, momentum=0.1, affine=True, track_running_stats=True)
2023-09-20T20:20:41,902 [INFO ] W-9000-test_model_1.0-stdout MODEL_LOG -       (conv3): Conv2d(128, 512, kernel_size=(1, 1), stride=(1, 1), bias=False)
2023-09-20T20:20:41,902 [INFO ] W-9000-test_model_1.0-stdout MODEL_LOG -       (bn3): BatchNorm2d(512, eps=1e-05, momentum=0.1, affine=True, track_running_stats=True)
2023-09-20T20:20:41,902 [INFO ] W-9000-test_model_1.0-stdout MODEL_LOG -       (relu): ReLU(inplace=True)
2023-09-20T20:20:41,903 [INFO ] W-9000-test_model_1.0-stdout MODEL_LOG -     )
2023-09-20T20:20:41,903 [INFO ] W-9000-test_model_1.0-stdout MODEL_LOG -     (3): Bottleneck(
2023-09-20T20:20:41,903 [INFO ] W-9000-test_model_1.0-stdout MODEL_LOG -       (conv1): Conv2d(512, 128, kernel_size=(1, 1), stride=(1, 1), bias=False)
2023-09-20T20:20:41,903 [INFO ] W-9000-test_model_1.0-stdout MODEL_LOG -       (bn1): BatchNorm2d(128, eps=1e-05, momentum=0.1, affine=True, track_running_stats=True)
2023-09-20T20:20:41,903 [INFO ] W-9000-test_model_1.0-stdout MODEL_LOG -       (conv2): Conv2d(128, 128, kernel_size=(3, 3), stride=(1, 1), padding=(1, 1), bias=False)
2023-09-20T20:20:41,904 [INFO ] W-9000-test_model_1.0-stdout MODEL_LOG -       (bn2): BatchNorm2d(128, eps=1e-05, momentum=0.1, affine=True, track_running_stats=True)
2023-09-20T20:20:41,904 [INFO ] W-9000-test_model_1.0-stdout MODEL_LOG -       (conv3): Conv2d(128, 512, kernel_size=(1, 1), stride=(1, 1), bias=False)
2023-09-20T20:20:41,904 [INFO ] W-9000-test_model_1.0-stdout MODEL_LOG -       (bn3): BatchNorm2d(512, eps=1e-05, momentum=0.1, affine=True, track_running_stats=True)
2023-09-20T20:20:41,905 [INFO ] W-9000-test_model_1.0-stdout MODEL_LOG -       (relu): ReLU(inplace=True)
2023-09-20T20:20:41,905 [INFO ] W-9000-test_model_1.0-stdout MODEL_LOG -     )
2023-09-20T20:20:41,905 [INFO ] W-9000-test_model_1.0-stdout MODEL_LOG -   )
2023-09-20T20:20:41,905 [INFO ] W-9000-test_model_1.0-stdout MODEL_LOG -   (layer3): Sequential(
2023-09-20T20:20:41,905 [INFO ] W-9000-test_model_1.0-stdout MODEL_LOG -     (0): Bottleneck(
2023-09-20T20:20:41,906 [INFO ] W-9000-test_model_1.0-stdout MODEL_LOG -       (conv1): Conv2d(512, 256, kernel_size=(1, 1), stride=(1, 1), bias=False)
2023-09-20T20:20:41,906 [INFO ] W-9000-test_model_1.0-stdout MODEL_LOG -       (bn1): BatchNorm2d(256, eps=1e-05, momentum=0.1, affine=True, track_running_stats=True)
2023-09-20T20:20:41,906 [INFO ] W-9000-test_model_1.0-stdout MODEL_LOG -       (conv2): Conv2d(256, 256, kernel_size=(3, 3), stride=(2, 2), padding=(1, 1), bias=False)
2023-09-20T20:20:41,906 [INFO ] W-9000-test_model_1.0-stdout MODEL_LOG -       (bn2): BatchNorm2d(256, eps=1e-05, momentum=0.1, affine=True, track_running_stats=True)
2023-09-20T20:20:41,906 [INFO ] W-9000-test_model_1.0-stdout MODEL_LOG -       (conv3): Conv2d(256, 1024, kernel_size=(1, 1), stride=(1, 1), bias=False)
2023-09-20T20:20:41,907 [INFO ] W-9000-test_model_1.0-stdout MODEL_LOG -       (bn3): BatchNorm2d(1024, eps=1e-05, momentum=0.1, affine=True, track_running_stats=True)
2023-09-20T20:20:41,907 [INFO ] W-9000-test_model_1.0-stdout MODEL_LOG -       (relu): ReLU(inplace=True)
2023-09-20T20:20:41,907 [INFO ] W-9000-test_model_1.0-stdout MODEL_LOG -       (downsample): Sequential(
2023-09-20T20:20:41,907 [INFO ] W-9000-test_model_1.0-stdout MODEL_LOG -         (0): Conv2d(512, 1024, kernel_size=(1, 1), stride=(2, 2), bias=False)
2023-09-20T20:20:41,908 [INFO ] W-9000-test_model_1.0-stdout MODEL_LOG -         (1): BatchNorm2d(1024, eps=1e-05, momentum=0.1, affine=True, track_running_stats=True)
2023-09-20T20:20:41,908 [INFO ] W-9000-test_model_1.0-stdout MODEL_LOG -       )
2023-09-20T20:20:41,908 [INFO ] W-9000-test_model_1.0-stdout MODEL_LOG -     )
2023-09-20T20:20:41,908 [INFO ] W-9000-test_model_1.0-stdout MODEL_LOG -     (1): Bottleneck(
2023-09-20T20:20:41,908 [INFO ] W-9000-test_model_1.0-stdout MODEL_LOG -       (conv1): Conv2d(1024, 256, kernel_size=(1, 1), stride=(1, 1), bias=False)
2023-09-20T20:20:41,909 [INFO ] W-9000-test_model_1.0-stdout MODEL_LOG -       (bn1): BatchNorm2d(256, eps=1e-05, momentum=0.1, affine=True, track_running_stats=True)
2023-09-20T20:20:41,909 [INFO ] W-9000-test_model_1.0-stdout MODEL_LOG -       (conv2): Conv2d(256, 256, kernel_size=(3, 3), stride=(1, 1), padding=(1, 1), bias=False)
2023-09-20T20:20:41,909 [INFO ] W-9000-test_model_1.0-stdout MODEL_LOG -       (bn2): BatchNorm2d(256, eps=1e-05, momentum=0.1, affine=True, track_running_stats=True)
2023-09-20T20:20:41,909 [INFO ] W-9000-test_model_1.0-stdout MODEL_LOG -       (conv3): Conv2d(256, 1024, kernel_size=(1, 1), stride=(1, 1), bias=False)
2023-09-20T20:20:41,909 [INFO ] W-9000-test_model_1.0-stdout MODEL_LOG -       (bn3): BatchNorm2d(1024, eps=1e-05, momentum=0.1, affine=True, track_running_stats=True)
2023-09-20T20:20:41,910 [INFO ] W-9000-test_model_1.0-stdout MODEL_LOG -       (relu): ReLU(inplace=True)
2023-09-20T20:20:41,910 [INFO ] W-9000-test_model_1.0-stdout MODEL_LOG -     )
2023-09-20T20:20:41,910 [INFO ] W-9000-test_model_1.0-stdout MODEL_LOG -     (2): Bottleneck(
2023-09-20T20:20:41,910 [INFO ] W-9000-test_model_1.0-stdout MODEL_LOG -       (conv1): Conv2d(1024, 256, kernel_size=(1, 1), stride=(1, 1), bias=False)
2023-09-20T20:20:41,911 [INFO ] W-9000-test_model_1.0-stdout MODEL_LOG -       (bn1): BatchNorm2d(256, eps=1e-05, momentum=0.1, affine=True, track_running_stats=True)
2023-09-20T20:20:41,911 [INFO ] W-9000-test_model_1.0-stdout MODEL_LOG -       (conv2): Conv2d(256, 256, kernel_size=(3, 3), stride=(1, 1), padding=(1, 1), bias=False)
2023-09-20T20:20:41,911 [INFO ] W-9000-test_model_1.0-stdout MODEL_LOG -       (bn2): BatchNorm2d(256, eps=1e-05, momentum=0.1, affine=True, track_running_stats=True)
2023-09-20T20:20:41,911 [INFO ] W-9000-test_model_1.0-stdout MODEL_LOG -       (conv3): Conv2d(256, 1024, kernel_size=(1, 1), stride=(1, 1), bias=False)
2023-09-20T20:20:41,912 [INFO ] W-9000-test_model_1.0-stdout MODEL_LOG -       (bn3): BatchNorm2d(1024, eps=1e-05, momentum=0.1, affine=True, track_running_stats=True)
2023-09-20T20:20:41,912 [INFO ] W-9000-test_model_1.0-stdout MODEL_LOG -       (relu): ReLU(inplace=True)
2023-09-20T20:20:41,912 [INFO ] W-9000-test_model_1.0-stdout MODEL_LOG -     )
2023-09-20T20:20:41,912 [INFO ] W-9000-test_model_1.0-stdout MODEL_LOG -     (3): Bottleneck(
2023-09-20T20:20:41,913 [INFO ] W-9000-test_model_1.0-stdout MODEL_LOG -       (conv1): Conv2d(1024, 256, kernel_size=(1, 1), stride=(1, 1), bias=False)
2023-09-20T20:20:41,913 [INFO ] W-9000-test_model_1.0-stdout MODEL_LOG -       (bn1): BatchNorm2d(256, eps=1e-05, momentum=0.1, affine=True, track_running_stats=True)
2023-09-20T20:20:41,913 [INFO ] W-9000-test_model_1.0-stdout MODEL_LOG -       (conv2): Conv2d(256, 256, kernel_size=(3, 3), stride=(1, 1), padding=(1, 1), bias=False)
2023-09-20T20:20:41,913 [INFO ] W-9000-test_model_1.0-stdout MODEL_LOG -       (bn2): BatchNorm2d(256, eps=1e-05, momentum=0.1, affine=True, track_running_stats=True)
2023-09-20T20:20:41,913 [INFO ] W-9000-test_model_1.0-stdout MODEL_LOG -       (conv3): Conv2d(256, 1024, kernel_size=(1, 1), stride=(1, 1), bias=False)
2023-09-20T20:20:41,914 [INFO ] W-9000-test_model_1.0-stdout MODEL_LOG -       (bn3): BatchNorm2d(1024, eps=1e-05, momentum=0.1, affine=True, track_running_stats=True)
2023-09-20T20:20:41,914 [INFO ] W-9000-test_model_1.0-stdout MODEL_LOG -       (relu): ReLU(inplace=True)
2023-09-20T20:20:41,914 [INFO ] W-9000-test_model_1.0-stdout MODEL_LOG -     )
2023-09-20T20:20:41,915 [INFO ] W-9000-test_model_1.0-stdout MODEL_LOG -     (4): Bottleneck(
2023-09-20T20:20:41,915 [INFO ] W-9000-test_model_1.0-stdout MODEL_LOG -       (conv1): Conv2d(1024, 256, kernel_size=(1, 1), stride=(1, 1), bias=False)
2023-09-20T20:20:41,915 [INFO ] W-9000-test_model_1.0-stdout MODEL_LOG -       (bn1): BatchNorm2d(256, eps=1e-05, momentum=0.1, affine=True, track_running_stats=True)
2023-09-20T20:20:41,915 [INFO ] W-9000-test_model_1.0-stdout MODEL_LOG -       (conv2): Conv2d(256, 256, kernel_size=(3, 3), stride=(1, 1), padding=(1, 1), bias=False)
2023-09-20T20:20:41,915 [INFO ] W-9000-test_model_1.0-stdout MODEL_LOG -       (bn2): BatchNorm2d(256, eps=1e-05, momentum=0.1, affine=True, track_running_stats=True)
2023-09-20T20:20:41,916 [INFO ] W-9000-test_model_1.0-stdout MODEL_LOG -       (conv3): Conv2d(256, 1024, kernel_size=(1, 1), stride=(1, 1), bias=False)
2023-09-20T20:20:41,916 [INFO ] W-9000-test_model_1.0-stdout MODEL_LOG -       (bn3): BatchNorm2d(1024, eps=1e-05, momentum=0.1, affine=True, track_running_stats=True)
2023-09-20T20:20:41,916 [INFO ] W-9000-test_model_1.0-stdout MODEL_LOG -       (relu): ReLU(inplace=True)
2023-09-20T20:20:41,916 [INFO ] W-9000-test_model_1.0-stdout MODEL_LOG -     )
2023-09-20T20:20:41,916 [INFO ] W-9000-test_model_1.0-stdout MODEL_LOG -     (5): Bottleneck(
2023-09-20T20:20:41,917 [INFO ] W-9000-test_model_1.0-stdout MODEL_LOG -       (conv1): Conv2d(1024, 256, kernel_size=(1, 1), stride=(1, 1), bias=False)
2023-09-20T20:20:41,917 [INFO ] W-9000-test_model_1.0-stdout MODEL_LOG -       (bn1): BatchNorm2d(256, eps=1e-05, momentum=0.1, affine=True, track_running_stats=True)
2023-09-20T20:20:41,917 [INFO ] W-9000-test_model_1.0-stdout MODEL_LOG -       (conv2): Conv2d(256, 256, kernel_size=(3, 3), stride=(1, 1), padding=(1, 1), bias=False)
2023-09-20T20:20:41,917 [INFO ] W-9000-test_model_1.0-stdout MODEL_LOG -       (bn2): BatchNorm2d(256, eps=1e-05, momentum=0.1, affine=True, track_running_stats=True)
2023-09-20T20:20:41,917 [INFO ] W-9000-test_model_1.0-stdout MODEL_LOG -       (conv3): Conv2d(256, 1024, kernel_size=(1, 1), stride=(1, 1), bias=False)
2023-09-20T20:20:41,918 [INFO ] W-9000-test_model_1.0-stdout MODEL_LOG -       (bn3): BatchNorm2d(1024, eps=1e-05, momentum=0.1, affine=True, track_running_stats=True)
2023-09-20T20:20:41,918 [INFO ] W-9000-test_model_1.0-stdout MODEL_LOG -       (relu): ReLU(inplace=True)
2023-09-20T20:20:41,918 [INFO ] W-9000-test_model_1.0-stdout MODEL_LOG -     )
2023-09-20T20:20:41,918 [INFO ] W-9000-test_model_1.0-stdout MODEL_LOG -   )
2023-09-20T20:20:41,918 [INFO ] W-9000-test_model_1.0-stdout MODEL_LOG -   (layer4): Sequential(
2023-09-20T20:20:41,919 [INFO ] W-9000-test_model_1.0-stdout MODEL_LOG -     (0): Bottleneck(
2023-09-20T20:20:41,919 [INFO ] W-9000-test_model_1.0-stdout MODEL_LOG -       (conv1): Conv2d(1024, 512, kernel_size=(1, 1), stride=(1, 1), bias=False)
2023-09-20T20:20:41,919 [INFO ] W-9000-test_model_1.0-stdout MODEL_LOG -       (bn1): BatchNorm2d(512, eps=1e-05, momentum=0.1, affine=True, track_running_stats=True)
2023-09-20T20:20:41,919 [INFO ] W-9000-test_model_1.0-stdout MODEL_LOG -       (conv2): Conv2d(512, 512, kernel_size=(3, 3), stride=(2, 2), padding=(1, 1), bias=False)
2023-09-20T20:20:41,920 [INFO ] W-9000-test_model_1.0-stdout MODEL_LOG -       (bn2): BatchNorm2d(512, eps=1e-05, momentum=0.1, affine=True, track_running_stats=True)
2023-09-20T20:20:41,920 [INFO ] W-9000-test_model_1.0-stdout MODEL_LOG -       (conv3): Conv2d(512, 2048, kernel_size=(1, 1), stride=(1, 1), bias=False)
2023-09-20T20:20:41,920 [INFO ] W-9000-test_model_1.0-stdout MODEL_LOG -       (bn3): BatchNorm2d(2048, eps=1e-05, momentum=0.1, affine=True, track_running_stats=True)
2023-09-20T20:20:41,920 [INFO ] W-9000-test_model_1.0-stdout MODEL_LOG -       (relu): ReLU(inplace=True)
2023-09-20T20:20:41,920 [INFO ] W-9000-test_model_1.0-stdout MODEL_LOG -       (downsample): Sequential(
2023-09-20T20:20:41,921 [INFO ] W-9000-test_model_1.0-stdout MODEL_LOG -         (0): Conv2d(1024, 2048, kernel_size=(1, 1), stride=(2, 2), bias=False)
2023-09-20T20:20:41,921 [INFO ] W-9000-test_model_1.0-stdout MODEL_LOG -         (1): BatchNorm2d(2048, eps=1e-05, momentum=0.1, affine=True, track_running_stats=True)
2023-09-20T20:20:41,921 [INFO ] W-9000-test_model_1.0-stdout MODEL_LOG -       )
2023-09-20T20:20:41,921 [INFO ] W-9000-test_model_1.0-stdout MODEL_LOG -     )
2023-09-20T20:20:41,921 [INFO ] W-9000-test_model_1.0-stdout MODEL_LOG -     (1): Bottleneck(
2023-09-20T20:20:41,922 [INFO ] W-9000-test_model_1.0-stdout MODEL_LOG -       (conv1): Conv2d(2048, 512, kernel_size=(1, 1), stride=(1, 1), bias=False)
2023-09-20T20:20:41,922 [INFO ] W-9000-test_model_1.0-stdout MODEL_LOG -       (bn1): BatchNorm2d(512, eps=1e-05, momentum=0.1, affine=True, track_running_stats=True)
2023-09-20T20:20:41,922 [INFO ] W-9000-test_model_1.0-stdout MODEL_LOG -       (conv2): Conv2d(512, 512, kernel_size=(3, 3), stride=(1, 1), padding=(1, 1), bias=False)
2023-09-20T20:20:41,922 [INFO ] W-9000-test_model_1.0-stdout MODEL_LOG -       (bn2): BatchNorm2d(512, eps=1e-05, momentum=0.1, affine=True, track_running_stats=True)
2023-09-20T20:20:41,922 [INFO ] W-9000-test_model_1.0-stdout MODEL_LOG -       (conv3): Conv2d(512, 2048, kernel_size=(1, 1), stride=(1, 1), bias=False)
2023-09-20T20:20:41,923 [INFO ] W-9000-test_model_1.0-stdout MODEL_LOG -       (bn3): BatchNorm2d(2048, eps=1e-05, momentum=0.1, affine=True, track_running_stats=True)
2023-09-20T20:20:41,923 [INFO ] W-9000-test_model_1.0-stdout MODEL_LOG -       (relu): ReLU(inplace=True)
2023-09-20T20:20:41,923 [INFO ] W-9000-test_model_1.0-stdout MODEL_LOG -     )
2023-09-20T20:20:41,923 [INFO ] W-9000-test_model_1.0-stdout MODEL_LOG -     (2): Bottleneck(
2023-09-20T20:20:41,923 [INFO ] W-9000-test_model_1.0-stdout MODEL_LOG -       (conv1): Conv2d(2048, 512, kernel_size=(1, 1), stride=(1, 1), bias=False)
2023-09-20T20:20:41,923 [INFO ] W-9000-test_model_1.0-stdout MODEL_LOG -       (bn1): BatchNorm2d(512, eps=1e-05, momentum=0.1, affine=True, track_running_stats=True)
2023-09-20T20:20:41,924 [INFO ] W-9000-test_model_1.0-stdout MODEL_LOG -       (conv2): Conv2d(512, 512, kernel_size=(3, 3), stride=(1, 1), padding=(1, 1), bias=False)
2023-09-20T20:20:41,924 [INFO ] W-9000-test_model_1.0-stdout MODEL_LOG -       (bn2): BatchNorm2d(512, eps=1e-05, momentum=0.1, affine=True, track_running_stats=True)
2023-09-20T20:20:41,924 [INFO ] W-9000-test_model_1.0-stdout MODEL_LOG -       (conv3): Conv2d(512, 2048, kernel_size=(1, 1), stride=(1, 1), bias=False)
2023-09-20T20:20:41,924 [INFO ] W-9000-test_model_1.0-stdout MODEL_LOG -       (bn3): BatchNorm2d(2048, eps=1e-05, momentum=0.1, affine=True, track_running_stats=True)
2023-09-20T20:20:41,925 [INFO ] W-9000-test_model_1.0-stdout MODEL_LOG -       (relu): ReLU(inplace=True)
2023-09-20T20:20:41,925 [INFO ] W-9000-test_model_1.0-stdout MODEL_LOG -     )
2023-09-20T20:20:41,925 [INFO ] W-9000-test_model_1.0-stdout MODEL_LOG -   )
2023-09-20T20:20:41,925 [INFO ] W-9000-test_model_1.0-stdout MODEL_LOG -   (avgpool): AdaptiveAvgPool2d(output_size=(1, 1))
2023-09-20T20:20:41,925 [INFO ] W-9000-test_model_1.0-stdout MODEL_LOG -   (fc): Linear(in_features=2048, out_features=2, bias=True)
2023-09-20T20:20:41,925 [INFO ] W-9000-test_model_1.0-stdout MODEL_LOG - ) argument after ** must be a mapping, not Tensor
2023-09-20T20:21:26,473 [WARN ] main org.pytorch.serve.util.ConfigManager - Your torchserve instance can access any URL to load models. When deploying to production, make sure to limit the set of allowed_urls in config.properties
2023-09-20T20:21:26,473 [WARN ] main org.pytorch.serve.util.ConfigManager - Your torchserve instance can access any URL to load models. When deploying to production, make sure to limit the set of allowed_urls in config.properties
…
